<?xml version="1.0"?>
<net name="Model466" version="11">
	<layers>
		<layer id="3" name="input_ids" type="Parameter" version="opset1">
			<data shape="?,?" element_type="i64" />
			<output>
				<port id="0" precision="I64" names="input_ids">
					<dim>-1</dim>
					<dim>-1</dim>
				</port>
			</output>
		</layer>
		<layer id="2" name="attention_mask" type="Parameter" version="opset1">
			<data shape="?,?" element_type="i64" />
			<output>
				<port id="0" precision="I64" names="attention_mask">
					<dim>-1</dim>
					<dim>-1</dim>
				</port>
			</output>
		</layer>
		<layer id="1" name="position_ids" type="Parameter" version="opset1">
			<data shape="?,?" element_type="i64" />
			<output>
				<port id="0" precision="I64" names="position_ids">
					<dim>-1</dim>
					<dim>-1</dim>
				</port>
			</output>
		</layer>
		<layer id="0" name="beam_idx" type="Parameter" version="opset1">
			<data shape="?" element_type="i32" />
			<output>
				<port id="0" precision="I32" names="beam_idx">
					<dim>-1</dim>
				</port>
			</output>
		</layer>
		<layer id="4" name="Constant_1314141" type="Const" version="opset1">
			<data element_type="f32" shape="" offset="0" size="4" />
			<output>
				<port id="0" precision="FP32" />
			</output>
		</layer>
		<layer id="5" name="ShapeOf_1314127" type="ShapeOf" version="opset3">
			<data output_type="i64" />
			<input>
				<port id="0" precision="I64">
					<dim>-1</dim>
					<dim>-1</dim>
				</port>
			</input>
			<output>
				<port id="1" precision="I64">
					<dim>2</dim>
				</port>
			</output>
		</layer>
		<layer id="6" name="Constant_1314129" type="Const" version="opset1">
			<data element_type="i64" shape="1" offset="4" size="8" />
			<output>
				<port id="0" precision="I64">
					<dim>1</dim>
				</port>
			</output>
		</layer>
		<layer id="7" name="Constant_1314131" type="Const" version="opset1">
			<data element_type="i64" shape="" offset="4" size="8" />
			<output>
				<port id="0" precision="I64" />
			</output>
		</layer>
		<layer id="8" name="Gather_1314132" type="Gather" version="opset8">
			<data batch_dims="0" />
			<input>
				<port id="0" precision="I64">
					<dim>2</dim>
				</port>
				<port id="1" precision="I64">
					<dim>1</dim>
				</port>
				<port id="2" precision="I64" />
			</input>
			<output>
				<port id="3" precision="I64">
					<dim>1</dim>
				</port>
			</output>
		</layer>
		<layer id="9" name="Constant_1314134" type="Const" version="opset1">
			<data element_type="i64" shape="1" offset="12" size="8" />
			<output>
				<port id="0" precision="I64">
					<dim>1</dim>
				</port>
			</output>
		</layer>
		<layer id="10" name="Constant_1314136" type="Const" version="opset1">
			<data element_type="i64" shape="1" offset="4" size="8" />
			<output>
				<port id="0" precision="I64">
					<dim>1</dim>
				</port>
			</output>
		</layer>
		<layer id="11" name="Constant_1314138" type="Const" version="opset1">
			<data element_type="i64" shape="1" offset="20" size="8" />
			<output>
				<port id="0" precision="I64">
					<dim>1</dim>
				</port>
			</output>
		</layer>
		<layer id="12" name="Concat_1314139" type="Concat" version="opset1">
			<data axis="0" />
			<input>
				<port id="0" precision="I64">
					<dim>1</dim>
				</port>
				<port id="1" precision="I64">
					<dim>1</dim>
				</port>
				<port id="2" precision="I64">
					<dim>1</dim>
				</port>
				<port id="3" precision="I64">
					<dim>1</dim>
				</port>
			</input>
			<output>
				<port id="4" precision="I64">
					<dim>4</dim>
				</port>
			</output>
		</layer>
		<layer id="13" name="Broadcast_1314142" type="Broadcast" version="opset3">
			<data mode="numpy" />
			<input>
				<port id="0" precision="FP32" />
				<port id="1" precision="I64">
					<dim>4</dim>
				</port>
			</input>
			<output>
				<port id="2" precision="FP32">
					<dim>-1</dim>
					<dim>8</dim>
					<dim>0</dim>
					<dim>128</dim>
				</port>
			</output>
		</layer>
		<layer id="14" name="ReadValue_1313711" type="ReadValue" version="opset6">
			<data variable_id="past_key_values.9.valuepresent.9.value" variable_type="f32" variable_shape="?,8,?,128" />
			<input>
				<port id="0" precision="FP32">
					<dim>-1</dim>
					<dim>8</dim>
					<dim>0</dim>
					<dim>128</dim>
				</port>
			</input>
			<output>
				<port id="1" precision="FP32" names="past_key_values.9.value">
					<dim>-1</dim>
					<dim>8</dim>
					<dim>-1</dim>
					<dim>128</dim>
				</port>
			</output>
		</layer>
		<layer id="15" name="Constant_1313037" type="Const" version="opset1">
			<data element_type="i64" shape="" offset="4" size="8" />
			<output>
				<port id="0" precision="I64" />
			</output>
		</layer>
		<layer id="16" name="Gather_1313038" type="Gather" version="opset8">
			<data batch_dims="0" />
			<input>
				<port id="0" precision="FP32">
					<dim>-1</dim>
					<dim>8</dim>
					<dim>-1</dim>
					<dim>128</dim>
				</port>
				<port id="1" precision="I32">
					<dim>-1</dim>
				</port>
				<port id="2" precision="I64" />
			</input>
			<output>
				<port id="3" precision="FP32">
					<dim>-1</dim>
					<dim>8</dim>
					<dim>-1</dim>
					<dim>128</dim>
				</port>
			</output>
		</layer>
		<layer id="17" name="Constant_1302023" type="Const" version="opset1">
			<data element_type="f32" shape="1, 1, 4096" offset="28" size="16384" />
			<output>
				<port id="0" precision="FP32">
					<dim>1</dim>
					<dim>1</dim>
					<dim>4096</dim>
				</port>
			</output>
		</layer>
		<layer id="18" name="self.model.embed_tokens.weight" type="Const" version="opset1">
			<data element_type="u8" shape="128256, 4096" offset="16412" size="525336576" />
			<output>
				<port id="0" precision="U8">
					<dim>128256</dim>
					<dim>4096</dim>
				</port>
			</output>
		</layer>
		<layer id="19" name="Convert_1343595" type="Convert" version="opset1">
			<data destination_type="f16" />
			<input>
				<port id="0" precision="U8">
					<dim>128256</dim>
					<dim>4096</dim>
				</port>
			</input>
			<output>
				<port id="1" precision="FP16">
					<dim>128256</dim>
					<dim>4096</dim>
				</port>
			</output>
		</layer>
		<layer id="20" name="self.model.embed_tokens.weight/zero_point" type="Const" version="opset1">
			<data element_type="u8" shape="128256, 1" offset="525352988" size="128256" />
			<output>
				<port id="0" precision="U8">
					<dim>128256</dim>
					<dim>1</dim>
				</port>
			</output>
		</layer>
		<layer id="21" name="Convert_1343598" type="Convert" version="opset1">
			<data destination_type="f16" />
			<input>
				<port id="0" precision="U8">
					<dim>128256</dim>
					<dim>1</dim>
				</port>
			</input>
			<output>
				<port id="1" precision="FP16">
					<dim>128256</dim>
					<dim>1</dim>
				</port>
			</output>
		</layer>
		<layer id="22" name="self.model.embed_tokens.weight/zero_point/subtract" type="Subtract" version="opset1">
			<data auto_broadcast="numpy" />
			<input>
				<port id="0" precision="FP16">
					<dim>128256</dim>
					<dim>4096</dim>
				</port>
				<port id="1" precision="FP16">
					<dim>128256</dim>
					<dim>1</dim>
				</port>
			</input>
			<output>
				<port id="2" precision="FP16">
					<dim>128256</dim>
					<dim>4096</dim>
				</port>
			</output>
		</layer>
		<layer id="23" name="self.model.embed_tokens.weight/scale" type="Const" version="opset1">
			<data element_type="f16" shape="128256, 1" offset="525481244" size="256512" />
			<output>
				<port id="0" precision="FP16">
					<dim>128256</dim>
					<dim>1</dim>
				</port>
			</output>
		</layer>
		<layer id="24" name="self.model.embed_tokens.weight/fq_weights_0" type="Multiply" version="opset1">
			<data auto_broadcast="numpy" />
			<input>
				<port id="0" precision="FP16">
					<dim>128256</dim>
					<dim>4096</dim>
				</port>
				<port id="1" precision="FP16">
					<dim>128256</dim>
					<dim>1</dim>
				</port>
			</input>
			<output>
				<port id="2" precision="FP16">
					<dim>128256</dim>
					<dim>4096</dim>
				</port>
			</output>
		</layer>
		<layer id="25" name="__module.model.embed_tokens/ov_ext::embedding/Convert" type="Convert" version="opset1">
			<data destination_type="f32" />
			<rt_info>
				<attribute name="decompression" version="0" />
			</rt_info>
			<input>
				<port id="0" precision="FP16">
					<dim>128256</dim>
					<dim>4096</dim>
				</port>
			</input>
			<output>
				<port id="1" precision="FP32">
					<dim>128256</dim>
					<dim>4096</dim>
				</port>
			</output>
		</layer>
		<layer id="26" name="__module.model.embed_tokens/ov_ext::embedding/Convert_1" type="Convert" version="opset1">
			<data destination_type="i32" />
			<input>
				<port id="0" precision="I64">
					<dim>-1</dim>
					<dim>-1</dim>
				</port>
			</input>
			<output>
				<port id="1" precision="I32">
					<dim>-1</dim>
					<dim>-1</dim>
				</port>
			</output>
		</layer>
		<layer id="27" name="__module.model.embed_tokens/ov_ext::embedding/Constant" type="Const" version="opset1">
			<data element_type="i32" shape="" offset="0" size="4" />
			<output>
				<port id="0" precision="I32" />
			</output>
		</layer>
		<layer id="28" name="__module.model.embed_tokens/ov_ext::embedding/Gather" type="Gather" version="opset8">
			<data batch_dims="0" />
			<input>
				<port id="0" precision="FP32">
					<dim>128256</dim>
					<dim>4096</dim>
				</port>
				<port id="1" precision="I32">
					<dim>-1</dim>
					<dim>-1</dim>
				</port>
				<port id="2" precision="I32" />
			</input>
			<output>
				<port id="3" precision="FP32" names="315,396,407,hidden_states.1,inputs_embeds">
					<dim>-1</dim>
					<dim>-1</dim>
					<dim>4096</dim>
				</port>
			</output>
		</layer>
		<layer id="29" name="Constant_1301950" type="Const" version="opset1">
			<data element_type="f32" shape="1, 1, 4096" offset="525737756" size="16384" />
			<output>
				<port id="0" precision="FP32">
					<dim>1</dim>
					<dim>1</dim>
					<dim>4096</dim>
				</port>
			</output>
		</layer>
		<layer id="30" name="Constant_1301949" type="Const" version="opset1">
			<data element_type="f32" shape="1, 1, 1" offset="525754140" size="4" />
			<output>
				<port id="0" precision="FP32">
					<dim>1</dim>
					<dim>1</dim>
					<dim>1</dim>
				</port>
			</output>
		</layer>
		<layer id="31" name="Constant_1301947" type="Const" version="opset1">
			<data element_type="f32" shape="1, 1, 1" offset="525754144" size="4" />
			<output>
				<port id="0" precision="FP32">
					<dim>1</dim>
					<dim>1</dim>
					<dim>1</dim>
				</port>
			</output>
		</layer>
		<layer id="32" name="__module.model.layers.0.input_layernorm/aten::pow/Power" type="Power" version="opset1">
			<data auto_broadcast="numpy" />
			<input>
				<port id="0" precision="FP32">
					<dim>-1</dim>
					<dim>-1</dim>
					<dim>4096</dim>
				</port>
				<port id="1" precision="FP32">
					<dim>1</dim>
					<dim>1</dim>
					<dim>1</dim>
				</port>
			</input>
			<output>
				<port id="2" precision="FP32" names="397">
					<dim>-1</dim>
					<dim>-1</dim>
					<dim>4096</dim>
				</port>
			</output>
		</layer>
		<layer id="33" name="Constant_1217518" type="Const" version="opset1">
			<data element_type="i64" shape="1" offset="525754148" size="8" />
			<output>
				<port id="0" precision="I64" names="398">
					<dim>1</dim>
				</port>
			</output>
		</layer>
		<layer id="34" name="__module.model.layers.0.input_layernorm/aten::mean/ReduceMean" type="ReduceMean" version="opset1">
			<data keep_dims="true" />
			<input>
				<port id="0" precision="FP32">
					<dim>-1</dim>
					<dim>-1</dim>
					<dim>4096</dim>
				</port>
				<port id="1" precision="I64">
					<dim>1</dim>
				</port>
			</input>
			<output>
				<port id="2" precision="FP32" names="399,variance.1">
					<dim>-1</dim>
					<dim>-1</dim>
					<dim>1</dim>
				</port>
			</output>
		</layer>
		<layer id="35" name="Constant_1301948" type="Const" version="opset1">
			<data element_type="f32" shape="1, 1, 1" offset="525754156" size="4" />
			<output>
				<port id="0" precision="FP32">
					<dim>1</dim>
					<dim>1</dim>
					<dim>1</dim>
				</port>
			</output>
		</layer>
		<layer id="36" name="__module.model.layers.0.input_layernorm/aten::add/Add" type="Add" version="opset1">
			<data auto_broadcast="numpy" />
			<input>
				<port id="0" precision="FP32">
					<dim>-1</dim>
					<dim>-1</dim>
					<dim>1</dim>
				</port>
				<port id="1" precision="FP32">
					<dim>1</dim>
					<dim>1</dim>
					<dim>1</dim>
				</port>
			</input>
			<output>
				<port id="2" precision="FP32" names="400">
					<dim>-1</dim>
					<dim>-1</dim>
					<dim>1</dim>
				</port>
			</output>
		</layer>
		<layer id="37" name="__module.model.layers.0.input_layernorm/aten::rsqrt/Sqrt" type="Sqrt" version="opset1">
			<input>
				<port id="0" precision="FP32">
					<dim>-1</dim>
					<dim>-1</dim>
					<dim>1</dim>
				</port>
			</input>
			<output>
				<port id="1" precision="FP32">
					<dim>-1</dim>
					<dim>-1</dim>
					<dim>1</dim>
				</port>
			</output>
		</layer>
		<layer id="38" name="__module.model.layers.0.input_layernorm/aten::rsqrt/Divide" type="Divide" version="opset1">
			<data auto_broadcast="numpy" m_pythondiv="true" />
			<input>
				<port id="0" precision="FP32">
					<dim>1</dim>
					<dim>1</dim>
					<dim>1</dim>
				</port>
				<port id="1" precision="FP32">
					<dim>-1</dim>
					<dim>-1</dim>
					<dim>1</dim>
				</port>
			</input>
			<output>
				<port id="2" precision="FP32" names="401">
					<dim>-1</dim>
					<dim>-1</dim>
					<dim>1</dim>
				</port>
			</output>
		</layer>
		<layer id="39" name="__module.model.layers.0.input_layernorm/aten::mul/Multiply" type="Multiply" version="opset1">
			<data auto_broadcast="numpy" />
			<input>
				<port id="0" precision="FP32">
					<dim>-1</dim>
					<dim>-1</dim>
					<dim>4096</dim>
				</port>
				<port id="1" precision="FP32">
					<dim>-1</dim>
					<dim>-1</dim>
					<dim>1</dim>
				</port>
			</input>
			<output>
				<port id="2" precision="FP32" names="402,403,hidden_states.3,hidden_states.5">
					<dim>-1</dim>
					<dim>-1</dim>
					<dim>4096</dim>
				</port>
			</output>
		</layer>
		<layer id="40" name="__module.model.layers.0.input_layernorm/aten::mul/Multiply_1" type="Multiply" version="opset1">
			<data auto_broadcast="numpy" />
			<input>
				<port id="0" precision="FP32">
					<dim>1</dim>
					<dim>1</dim>
					<dim>4096</dim>
				</port>
				<port id="1" precision="FP32">
					<dim>-1</dim>
					<dim>-1</dim>
					<dim>4096</dim>
				</port>
			</input>
			<output>
				<port id="2" precision="FP32" names="404,406,hidden_states.7">
					<dim>-1</dim>
					<dim>-1</dim>
					<dim>4096</dim>
				</port>
			</output>
		</layer>
		<layer id="41" name="self.model.layers.0.self_attn.q_proj.weight" type="Const" version="opset1">
			<data element_type="u4" shape="4096, 32, 128" offset="525754160" size="8388608" />
			<output>
				<port id="0" precision="U4">
					<dim>4096</dim>
					<dim>32</dim>
					<dim>128</dim>
				</port>
			</output>
		</layer>
		<layer id="42" name="Convert_1765087" type="Convert" version="opset1">
			<data destination_type="f16" />
			<input>
				<port id="0" precision="U4">
					<dim>4096</dim>
					<dim>32</dim>
					<dim>128</dim>
				</port>
			</input>
			<output>
				<port id="1" precision="FP16">
					<dim>4096</dim>
					<dim>32</dim>
					<dim>128</dim>
				</port>
			</output>
		</layer>
		<layer id="43" name="self.model.layers.0.self_attn.q_proj.weight/zero_point" type="Const" version="opset1">
			<data element_type="u4" shape="4096, 32, 1" offset="534142768" size="65536" />
			<output>
				<port id="0" precision="U4">
					<dim>4096</dim>
					<dim>32</dim>
					<dim>1</dim>
				</port>
			</output>
		</layer>
		<layer id="44" name="Convert_1765090" type="Convert" version="opset1">
			<data destination_type="f16" />
			<input>
				<port id="0" precision="U4">
					<dim>4096</dim>
					<dim>32</dim>
					<dim>1</dim>
				</port>
			</input>
			<output>
				<port id="1" precision="FP16">
					<dim>4096</dim>
					<dim>32</dim>
					<dim>1</dim>
				</port>
			</output>
		</layer>
		<layer id="45" name="self.model.layers.0.self_attn.q_proj.weight/zero_point/subtract" type="Subtract" version="opset1">
			<data auto_broadcast="numpy" />
			<input>
				<port id="0" precision="FP16">
					<dim>4096</dim>
					<dim>32</dim>
					<dim>128</dim>
				</port>
				<port id="1" precision="FP16">
					<dim>4096</dim>
					<dim>32</dim>
					<dim>1</dim>
				</port>
			</input>
			<output>
				<port id="2" precision="FP16">
					<dim>4096</dim>
					<dim>32</dim>
					<dim>128</dim>
				</port>
			</output>
		</layer>
		<layer id="46" name="self.model.layers.0.self_attn.q_proj.weight/scale" type="Const" version="opset1">
			<data element_type="f16" shape="4096, 32, 1" offset="534208304" size="262144" />
			<output>
				<port id="0" precision="FP16">
					<dim>4096</dim>
					<dim>32</dim>
					<dim>1</dim>
				</port>
			</output>
		</layer>
		<layer id="47" name="self.model.layers.0.self_attn.q_proj.weight/fq_weights_1" type="Multiply" version="opset1">
			<data auto_broadcast="numpy" />
			<input>
				<port id="0" precision="FP16">
					<dim>4096</dim>
					<dim>32</dim>
					<dim>128</dim>
				</port>
				<port id="1" precision="FP16">
					<dim>4096</dim>
					<dim>32</dim>
					<dim>1</dim>
				</port>
			</input>
			<output>
				<port id="2" precision="FP16">
					<dim>4096</dim>
					<dim>32</dim>
					<dim>128</dim>
				</port>
			</output>
		</layer>
		<layer id="48" name="Constant_1765095" type="Const" version="opset1">
			<data element_type="i64" shape="2" offset="534470448" size="16" />
			<output>
				<port id="0" precision="I64">
					<dim>2</dim>
				</port>
			</output>
		</layer>
		<layer id="49" name="Reshape_1765096" type="Reshape" version="opset1">
			<data special_zero="false" />
			<input>
				<port id="0" precision="FP16">
					<dim>4096</dim>
					<dim>32</dim>
					<dim>128</dim>
				</port>
				<port id="1" precision="I64">
					<dim>2</dim>
				</port>
			</input>
			<output>
				<port id="2" precision="FP16">
					<dim>4096</dim>
					<dim>4096</dim>
				</port>
			</output>
		</layer>
		<layer id="50" name="__module.model.layers.0.self_attn.q_proj/ov_ext::linear/Convert" type="Convert" version="opset1">
			<data destination_type="f32" />
			<rt_info>
				<attribute name="decompression" version="0" />
			</rt_info>
			<input>
				<port id="0" precision="FP16">
					<dim>4096</dim>
					<dim>4096</dim>
				</port>
			</input>
			<output>
				<port id="1" precision="FP32">
					<dim>4096</dim>
					<dim>4096</dim>
				</port>
			</output>
		</layer>
		<layer id="51" name="__module.model.layers.0.self_attn.q_proj/ov_ext::linear/MatMul" type="MatMul" version="opset1">
			<data transpose_a="false" transpose_b="true" />
			<input>
				<port id="0" precision="FP32">
					<dim>-1</dim>
					<dim>-1</dim>
					<dim>4096</dim>
				</port>
				<port id="1" precision="FP32">
					<dim>4096</dim>
					<dim>4096</dim>
				</port>
			</input>
			<output>
				<port id="2" precision="FP32" names="415">
					<dim>-1</dim>
					<dim>-1</dim>
					<dim>4096</dim>
				</port>
			</output>
		</layer>
		<layer id="52" name="Constant_1311457" type="Const" version="opset1">
			<data element_type="i64" shape="4" offset="534470464" size="32" />
			<output>
				<port id="0" precision="I64">
					<dim>4</dim>
				</port>
			</output>
		</layer>
		<layer id="53" name="__module.model.layers.0.self_attn/aten::view/Reshape" type="Reshape" version="opset1">
			<data special_zero="true" />
			<input>
				<port id="0" precision="FP32">
					<dim>-1</dim>
					<dim>-1</dim>
					<dim>4096</dim>
				</port>
				<port id="1" precision="I64">
					<dim>4</dim>
				</port>
			</input>
			<output>
				<port id="2" precision="FP32" names="417">
					<dim>-1</dim>
					<dim>-1</dim>
					<dim>32</dim>
					<dim>128</dim>
				</port>
			</output>
		</layer>
		<layer id="54" name="__module.model.layers.0.self_attn/aten::transpose/Constant" type="Const" version="opset1">
			<data element_type="i32" shape="4" offset="534470496" size="16" />
			<output>
				<port id="0" precision="I32">
					<dim>4</dim>
				</port>
			</output>
		</layer>
		<layer id="55" name="__module.model.layers.0.self_attn/aten::transpose/Transpose" type="Transpose" version="opset1">
			<input>
				<port id="0" precision="FP32">
					<dim>-1</dim>
					<dim>-1</dim>
					<dim>32</dim>
					<dim>128</dim>
				</port>
				<port id="1" precision="I32">
					<dim>4</dim>
				</port>
			</input>
			<output>
				<port id="2" precision="FP32" names="418,q.1">
					<dim>-1</dim>
					<dim>32</dim>
					<dim>-1</dim>
					<dim>128</dim>
				</port>
			</output>
		</layer>
		<layer id="56" name="__module.model.rotary_emb/aten::to/Convert" type="Const" version="opset1">
			<data element_type="f32" shape="1, 64, 1" offset="534470512" size="256" />
			<output>
				<port id="0" precision="FP32" names="367">
					<dim>1</dim>
					<dim>64</dim>
					<dim>1</dim>
				</port>
			</output>
		</layer>
		<layer id="57" name="ShapeOf_1303953" type="ShapeOf" version="opset3">
			<data output_type="i64" />
			<input>
				<port id="0" precision="FP32">
					<dim>-1</dim>
					<dim>-1</dim>
					<dim>4096</dim>
				</port>
			</input>
			<output>
				<port id="1" precision="I64">
					<dim>3</dim>
				</port>
			</output>
		</layer>
		<layer id="58" name="Constant_1303954" type="Const" version="opset1">
			<data element_type="i64" shape="1" offset="4" size="8" />
			<output>
				<port id="0" precision="I64">
					<dim>1</dim>
				</port>
			</output>
		</layer>
		<layer id="59" name="Constant_1303955" type="Const" version="opset1">
			<data element_type="i64" shape="" offset="4" size="8" />
			<output>
				<port id="0" precision="I64" />
			</output>
		</layer>
		<layer id="60" name="Gather_1303956" type="Gather" version="opset8">
			<data batch_dims="0" />
			<input>
				<port id="0" precision="I64">
					<dim>3</dim>
				</port>
				<port id="1" precision="I64">
					<dim>1</dim>
				</port>
				<port id="2" precision="I64" />
			</input>
			<output>
				<port id="3" precision="I64" names="1102,1118,1260,1276,1418,1434,1576,1592,1734,1750,1892,1908,2050,2066,2208,2224,2366,2382,2524,2540,2682,2698,2840,2856,2998,3014,3156,3172,3314,3330,338,3472,3488,3630,3646,368,3788,3804,3946,3962,4104,4120,4262,4278,4420,4436,4578,4594,470,4736,4752,486,4894,4910,5052,5068,5210,5226,5368,5384,628,644,786,802,944,960">
					<dim>1</dim>
				</port>
			</output>
		</layer>
		<layer id="61" name="Constant_1283480" type="Const" version="opset1">
			<data element_type="i64" shape="1" offset="534470768" size="8" />
			<output>
				<port id="0" precision="I64">
					<dim>1</dim>
				</port>
			</output>
		</layer>
		<layer id="62" name="Constant_1283482" type="Const" version="opset1">
			<data element_type="i64" shape="1" offset="534470768" size="8" />
			<output>
				<port id="0" precision="I64">
					<dim>1</dim>
				</port>
			</output>
		</layer>
		<layer id="63" name="__module.model.rotary_emb/prim::ListConstruct" type="Concat" version="opset1">
			<data axis="0" />
			<input>
				<port id="0" precision="I64">
					<dim>1</dim>
				</port>
				<port id="1" precision="I64">
					<dim>1</dim>
				</port>
				<port id="2" precision="I64">
					<dim>1</dim>
				</port>
			</input>
			<output>
				<port id="3" precision="I64">
					<dim>3</dim>
				</port>
			</output>
		</layer>
		<layer id="64" name="__module.model.rotary_emb/aten::expand/Broadcast" type="Broadcast" version="opset3">
			<data mode="bidirectional" />
			<input>
				<port id="0" precision="FP32">
					<dim>1</dim>
					<dim>64</dim>
					<dim>1</dim>
				</port>
				<port id="1" precision="I64">
					<dim>3</dim>
				</port>
			</input>
			<output>
				<port id="2" precision="FP32" names="370,371,376,inv_freq_expanded,inv_freq_expanded.1">
					<dim>-1</dim>
					<dim>64</dim>
					<dim>1</dim>
				</port>
			</output>
		</layer>
		<layer id="65" name="245" type="Const" version="opset1">
			<data element_type="i64" shape="" offset="534470768" size="8" />
			<output>
				<port id="0" precision="I64" names="245" />
			</output>
		</layer>
		<layer id="66" name="__module.model.rotary_emb/aten::unsqueeze/Unsqueeze_2" type="Unsqueeze" version="opset1">
			<input>
				<port id="0" precision="I64">
					<dim>-1</dim>
					<dim>-1</dim>
				</port>
				<port id="1" precision="I64" />
			</input>
			<output>
				<port id="2" precision="I64" names="373,374">
					<dim>-1</dim>
					<dim>1</dim>
					<dim>-1</dim>
				</port>
			</output>
		</layer>
		<layer id="67" name="__module.model.rotary_emb/aten::to/Convert_3" type="Convert" version="opset1">
			<data destination_type="f32" />
			<input>
				<port id="0" precision="I64">
					<dim>-1</dim>
					<dim>1</dim>
					<dim>-1</dim>
				</port>
			</input>
			<output>
				<port id="1" precision="FP32" names="375,377,position_ids_expanded,position_ids_expanded.1">
					<dim>-1</dim>
					<dim>1</dim>
					<dim>-1</dim>
				</port>
			</output>
		</layer>
		<layer id="68" name="__module.model.rotary_emb/aten::matmul/MatMul" type="MatMul" version="opset1">
			<data transpose_a="false" transpose_b="false" />
			<input>
				<port id="0" precision="FP32">
					<dim>-1</dim>
					<dim>64</dim>
					<dim>1</dim>
				</port>
				<port id="1" precision="FP32">
					<dim>-1</dim>
					<dim>1</dim>
					<dim>-1</dim>
				</port>
			</input>
			<output>
				<port id="2" precision="FP32" names="378">
					<dim>-1</dim>
					<dim>64</dim>
					<dim>-1</dim>
				</port>
			</output>
		</layer>
		<layer id="69" name="__module.model.rotary_emb/aten::transpose/Constant" type="Const" version="opset1">
			<data element_type="i32" shape="3" offset="534470776" size="12" />
			<output>
				<port id="0" precision="I32">
					<dim>3</dim>
				</port>
			</output>
		</layer>
		<layer id="70" name="__module.model.rotary_emb/aten::transpose/Transpose" type="Transpose" version="opset1">
			<input>
				<port id="0" precision="FP32">
					<dim>-1</dim>
					<dim>64</dim>
					<dim>-1</dim>
				</port>
				<port id="1" precision="I32">
					<dim>3</dim>
				</port>
			</input>
			<output>
				<port id="2" precision="FP32" names="379,freqs">
					<dim>-1</dim>
					<dim>-1</dim>
					<dim>64</dim>
				</port>
			</output>
		</layer>
		<layer id="71" name="__module.model.rotary_emb/aten::cat/Concat" type="Concat" version="opset1">
			<data axis="-1" />
			<input>
				<port id="0" precision="FP32">
					<dim>-1</dim>
					<dim>-1</dim>
					<dim>64</dim>
				</port>
				<port id="1" precision="FP32">
					<dim>-1</dim>
					<dim>-1</dim>
					<dim>64</dim>
				</port>
			</input>
			<output>
				<port id="2" precision="FP32" names="381,emb">
					<dim>-1</dim>
					<dim>-1</dim>
					<dim>128</dim>
				</port>
			</output>
		</layer>
		<layer id="72" name="__module.model.rotary_emb/aten::cos/Cos" type="Cos" version="opset1">
			<input>
				<port id="0" precision="FP32">
					<dim>-1</dim>
					<dim>-1</dim>
					<dim>128</dim>
				</port>
			</input>
			<output>
				<port id="1" precision="FP32" names="382,383,386,389,cos.1,cos.3">
					<dim>-1</dim>
					<dim>-1</dim>
					<dim>128</dim>
				</port>
			</output>
		</layer>
		<layer id="73" name="__module.model.layers.0.self_attn/aten::unsqueeze/Unsqueeze" type="Unsqueeze" version="opset1">
			<input>
				<port id="0" precision="FP32">
					<dim>-1</dim>
					<dim>-1</dim>
					<dim>128</dim>
				</port>
				<port id="1" precision="I64" />
			</input>
			<output>
				<port id="2" precision="FP32" names="1064,1222,1380,1538,1696,1854,2012,2170,2328,2486,2644,2802,2960,3118,3276,3434,3592,3750,3908,4066,4224,429,4382,4540,4698,4856,5014,5172,5330,590,748,906,cos,cos.11,cos.13,cos.15,cos.17,cos.19,cos.21,cos.23,cos.25,cos.27,cos.29,cos.31,cos.33,cos.35,cos.37,cos.39,cos.41,cos.43,cos.45,cos.47,cos.49,cos.5,cos.51,cos.53,cos.55,cos.57,cos.59,cos.61,cos.63,cos.65,cos.7,cos.9">
					<dim>-1</dim>
					<dim>1</dim>
					<dim>-1</dim>
					<dim>128</dim>
				</port>
			</output>
		</layer>
		<layer id="74" name="__module.model.layers.0.self_attn/aten::mul/Multiply" type="Multiply" version="opset1">
			<data auto_broadcast="numpy" />
			<input>
				<port id="0" precision="FP32">
					<dim>-1</dim>
					<dim>32</dim>
					<dim>-1</dim>
					<dim>128</dim>
				</port>
				<port id="1" precision="FP32">
					<dim>-1</dim>
					<dim>1</dim>
					<dim>-1</dim>
					<dim>128</dim>
				</port>
			</input>
			<output>
				<port id="2" precision="FP32" names="431">
					<dim>-1</dim>
					<dim>32</dim>
					<dim>-1</dim>
					<dim>128</dim>
				</port>
			</output>
		</layer>
		<layer id="75" name="Constant_1217820" type="Const" version="opset1">
			<data element_type="i64" shape="1" offset="534470788" size="8" />
			<output>
				<port id="0" precision="I64">
					<dim>1</dim>
				</port>
			</output>
		</layer>
		<layer id="76" name="Constant_1217822" type="Const" version="opset1">
			<data element_type="i64" shape="1" offset="534470796" size="8" />
			<output>
				<port id="0" precision="I64">
					<dim>1</dim>
				</port>
			</output>
		</layer>
		<layer id="77" name="Constant_1217824" type="Const" version="opset1">
			<data element_type="i64" shape="1" offset="534470768" size="8" />
			<output>
				<port id="0" precision="I64">
					<dim>1</dim>
				</port>
			</output>
		</layer>
		<layer id="78" name="Constant_1217776" type="Const" version="opset1">
			<data element_type="i64" shape="1" offset="534470804" size="8" />
			<output>
				<port id="0" precision="I64">
					<dim>1</dim>
				</port>
			</output>
		</layer>
		<layer id="79" name="__module.model.layers.0.self_attn/aten::slice/Slice" type="Slice" version="opset8">
			<input>
				<port id="0" precision="FP32">
					<dim>-1</dim>
					<dim>32</dim>
					<dim>-1</dim>
					<dim>128</dim>
				</port>
				<port id="1" precision="I64">
					<dim>1</dim>
				</port>
				<port id="2" precision="I64">
					<dim>1</dim>
				</port>
				<port id="3" precision="I64">
					<dim>1</dim>
				</port>
				<port id="4" precision="I64">
					<dim>1</dim>
				</port>
			</input>
			<output>
				<port id="5" precision="FP32" names="441,x2.1">
					<dim>-1</dim>
					<dim>32</dim>
					<dim>-1</dim>
					<dim>64</dim>
				</port>
			</output>
		</layer>
		<layer id="80" name="__module.model.layers.0.self_attn/aten::neg/Constant" type="Const" version="opset1">
			<data element_type="i32" shape="" offset="534470812" size="4" />
			<output>
				<port id="0" precision="I32" />
			</output>
		</layer>
		<layer id="81" name="__module.model.layers.0.self_attn/aten::neg/ConvertLike" type="Convert" version="opset1">
			<data destination_type="f32" />
			<input>
				<port id="0" precision="I32" />
			</input>
			<output>
				<port id="1" precision="FP32" />
			</output>
		</layer>
		<layer id="82" name="__module.model.layers.0.self_attn/aten::neg/Multiply" type="Multiply" version="opset1">
			<data auto_broadcast="numpy" />
			<input>
				<port id="0" precision="FP32">
					<dim>-1</dim>
					<dim>32</dim>
					<dim>-1</dim>
					<dim>64</dim>
				</port>
				<port id="1" precision="FP32" />
			</input>
			<output>
				<port id="2" precision="FP32" names="442">
					<dim>-1</dim>
					<dim>32</dim>
					<dim>-1</dim>
					<dim>64</dim>
				</port>
			</output>
		</layer>
		<layer id="83" name="Constant_1217717" type="Const" version="opset1">
			<data element_type="i64" shape="1" offset="4" size="8" />
			<output>
				<port id="0" precision="I64">
					<dim>1</dim>
				</port>
			</output>
		</layer>
		<layer id="84" name="Constant_1217761" type="Const" version="opset1">
			<data element_type="i64" shape="1" offset="534470788" size="8" />
			<output>
				<port id="0" precision="I64">
					<dim>1</dim>
				</port>
			</output>
		</layer>
		<layer id="85" name="Constant_1217763" type="Const" version="opset1">
			<data element_type="i64" shape="1" offset="534470768" size="8" />
			<output>
				<port id="0" precision="I64">
					<dim>1</dim>
				</port>
			</output>
		</layer>
		<layer id="86" name="Constant_1217715" type="Const" version="opset1">
			<data element_type="i64" shape="1" offset="534470804" size="8" />
			<output>
				<port id="0" precision="I64">
					<dim>1</dim>
				</port>
			</output>
		</layer>
		<layer id="87" name="__module.model.layers.0.self_attn/aten::slice/Slice_1" type="Slice" version="opset8">
			<input>
				<port id="0" precision="FP32">
					<dim>-1</dim>
					<dim>32</dim>
					<dim>-1</dim>
					<dim>128</dim>
				</port>
				<port id="1" precision="I64">
					<dim>1</dim>
				</port>
				<port id="2" precision="I64">
					<dim>1</dim>
				</port>
				<port id="3" precision="I64">
					<dim>1</dim>
				</port>
				<port id="4" precision="I64">
					<dim>1</dim>
				</port>
			</input>
			<output>
				<port id="5" precision="FP32" names="436,x1.1">
					<dim>-1</dim>
					<dim>32</dim>
					<dim>-1</dim>
					<dim>64</dim>
				</port>
			</output>
		</layer>
		<layer id="88" name="__module.model.layers.0.self_attn/aten::cat/Concat" type="Concat" version="opset1">
			<data axis="-1" />
			<input>
				<port id="0" precision="FP32">
					<dim>-1</dim>
					<dim>32</dim>
					<dim>-1</dim>
					<dim>64</dim>
				</port>
				<port id="1" precision="FP32">
					<dim>-1</dim>
					<dim>32</dim>
					<dim>-1</dim>
					<dim>64</dim>
				</port>
			</input>
			<output>
				<port id="2" precision="FP32" names="444">
					<dim>-1</dim>
					<dim>32</dim>
					<dim>-1</dim>
					<dim>128</dim>
				</port>
			</output>
		</layer>
		<layer id="89" name="__module.model.rotary_emb/aten::sin/Sin" type="Sin" version="opset1">
			<input>
				<port id="0" precision="FP32">
					<dim>-1</dim>
					<dim>-1</dim>
					<dim>128</dim>
				</port>
			</input>
			<output>
				<port id="1" precision="FP32" names="384,385,387,390,sin.1,sin.3">
					<dim>-1</dim>
					<dim>-1</dim>
					<dim>128</dim>
				</port>
			</output>
		</layer>
		<layer id="90" name="__module.model.layers.0.self_attn/aten::unsqueeze/Unsqueeze_1" type="Unsqueeze" version="opset1">
			<input>
				<port id="0" precision="FP32">
					<dim>-1</dim>
					<dim>-1</dim>
					<dim>128</dim>
				</port>
				<port id="1" precision="I64" />
			</input>
			<output>
				<port id="2" precision="FP32" names="1065,1223,1381,1539,1697,1855,2013,2171,2329,2487,2645,2803,2961,3119,3277,3435,3593,3751,3909,4067,4225,430,4383,4541,4699,4857,5015,5173,5331,591,749,907,sin,sin.11,sin.13,sin.15,sin.17,sin.19,sin.21,sin.23,sin.25,sin.27,sin.29,sin.31,sin.33,sin.35,sin.37,sin.39,sin.41,sin.43,sin.45,sin.47,sin.49,sin.5,sin.51,sin.53,sin.55,sin.57,sin.59,sin.61,sin.63,sin.65,sin.7,sin.9">
					<dim>-1</dim>
					<dim>1</dim>
					<dim>-1</dim>
					<dim>128</dim>
				</port>
			</output>
		</layer>
		<layer id="91" name="__module.model.layers.0.self_attn/aten::mul/Multiply_1" type="Multiply" version="opset1">
			<data auto_broadcast="numpy" />
			<input>
				<port id="0" precision="FP32">
					<dim>-1</dim>
					<dim>32</dim>
					<dim>-1</dim>
					<dim>128</dim>
				</port>
				<port id="1" precision="FP32">
					<dim>-1</dim>
					<dim>1</dim>
					<dim>-1</dim>
					<dim>128</dim>
				</port>
			</input>
			<output>
				<port id="2" precision="FP32" names="445">
					<dim>-1</dim>
					<dim>32</dim>
					<dim>-1</dim>
					<dim>128</dim>
				</port>
			</output>
		</layer>
		<layer id="92" name="__module.model.layers.0.self_attn/aten::add/Add" type="Add" version="opset1">
			<data auto_broadcast="numpy" />
			<input>
				<port id="0" precision="FP32">
					<dim>-1</dim>
					<dim>32</dim>
					<dim>-1</dim>
					<dim>128</dim>
				</port>
				<port id="1" precision="FP32">
					<dim>-1</dim>
					<dim>32</dim>
					<dim>-1</dim>
					<dim>128</dim>
				</port>
			</input>
			<output>
				<port id="2" precision="FP32" names="446,query.1">
					<dim>-1</dim>
					<dim>32</dim>
					<dim>-1</dim>
					<dim>128</dim>
				</port>
			</output>
		</layer>
		<layer id="93" name="Constant_1314153" type="Const" version="opset1">
			<data element_type="f32" shape="" offset="0" size="4" />
			<output>
				<port id="0" precision="FP32" />
			</output>
		</layer>
		<layer id="94" name="Constant_1314146" type="Const" version="opset1">
			<data element_type="i64" shape="1" offset="12" size="8" />
			<output>
				<port id="0" precision="I64">
					<dim>1</dim>
				</port>
			</output>
		</layer>
		<layer id="95" name="Constant_1314148" type="Const" version="opset1">
			<data element_type="i64" shape="1" offset="4" size="8" />
			<output>
				<port id="0" precision="I64">
					<dim>1</dim>
				</port>
			</output>
		</layer>
		<layer id="96" name="Constant_1314150" type="Const" version="opset1">
			<data element_type="i64" shape="1" offset="20" size="8" />
			<output>
				<port id="0" precision="I64">
					<dim>1</dim>
				</port>
			</output>
		</layer>
		<layer id="97" name="Concat_1314151" type="Concat" version="opset1">
			<data axis="0" />
			<input>
				<port id="0" precision="I64">
					<dim>1</dim>
				</port>
				<port id="1" precision="I64">
					<dim>1</dim>
				</port>
				<port id="2" precision="I64">
					<dim>1</dim>
				</port>
				<port id="3" precision="I64">
					<dim>1</dim>
				</port>
			</input>
			<output>
				<port id="4" precision="I64">
					<dim>4</dim>
				</port>
			</output>
		</layer>
		<layer id="98" name="Broadcast_1314154" type="Broadcast" version="opset3">
			<data mode="numpy" />
			<input>
				<port id="0" precision="FP32" />
				<port id="1" precision="I64">
					<dim>4</dim>
				</port>
			</input>
			<output>
				<port id="2" precision="FP32">
					<dim>-1</dim>
					<dim>8</dim>
					<dim>0</dim>
					<dim>128</dim>
				</port>
			</output>
		</layer>
		<layer id="99" name="ReadValue_1313585" type="ReadValue" version="opset6">
			<data variable_id="past_key_values.0.keypresent.0.key" variable_type="f32" variable_shape="?,8,?,128" />
			<input>
				<port id="0" precision="FP32">
					<dim>-1</dim>
					<dim>8</dim>
					<dim>0</dim>
					<dim>128</dim>
				</port>
			</input>
			<output>
				<port id="1" precision="FP32" names="past_key_values.0.key">
					<dim>-1</dim>
					<dim>8</dim>
					<dim>-1</dim>
					<dim>128</dim>
				</port>
			</output>
		</layer>
		<layer id="100" name="Constant_1312980" type="Const" version="opset1">
			<data element_type="i64" shape="" offset="4" size="8" />
			<output>
				<port id="0" precision="I64" />
			</output>
		</layer>
		<layer id="101" name="Gather_1312981" type="Gather" version="opset8">
			<data batch_dims="0" />
			<input>
				<port id="0" precision="FP32">
					<dim>-1</dim>
					<dim>8</dim>
					<dim>-1</dim>
					<dim>128</dim>
				</port>
				<port id="1" precision="I32">
					<dim>-1</dim>
				</port>
				<port id="2" precision="I64" />
			</input>
			<output>
				<port id="3" precision="FP32">
					<dim>-1</dim>
					<dim>8</dim>
					<dim>-1</dim>
					<dim>128</dim>
				</port>
			</output>
		</layer>
		<layer id="102" name="self.model.layers.0.self_attn.k_proj.weight" type="Const" version="opset1">
			<data element_type="u4" shape="1024, 32, 128" offset="534470816" size="2097152" />
			<output>
				<port id="0" precision="U4">
					<dim>1024</dim>
					<dim>32</dim>
					<dim>128</dim>
				</port>
			</output>
		</layer>
		<layer id="103" name="Convert_2040351" type="Convert" version="opset1">
			<data destination_type="f16" />
			<input>
				<port id="0" precision="U4">
					<dim>1024</dim>
					<dim>32</dim>
					<dim>128</dim>
				</port>
			</input>
			<output>
				<port id="1" precision="FP16">
					<dim>1024</dim>
					<dim>32</dim>
					<dim>128</dim>
				</port>
			</output>
		</layer>
		<layer id="104" name="self.model.layers.0.self_attn.k_proj.weight/zero_point" type="Const" version="opset1">
			<data element_type="u4" shape="1024, 32, 1" offset="536567968" size="16384" />
			<output>
				<port id="0" precision="U4">
					<dim>1024</dim>
					<dim>32</dim>
					<dim>1</dim>
				</port>
			</output>
		</layer>
		<layer id="105" name="Convert_2040354" type="Convert" version="opset1">
			<data destination_type="f16" />
			<input>
				<port id="0" precision="U4">
					<dim>1024</dim>
					<dim>32</dim>
					<dim>1</dim>
				</port>
			</input>
			<output>
				<port id="1" precision="FP16">
					<dim>1024</dim>
					<dim>32</dim>
					<dim>1</dim>
				</port>
			</output>
		</layer>
		<layer id="106" name="self.model.layers.0.self_attn.k_proj.weight/zero_point/subtract" type="Subtract" version="opset1">
			<data auto_broadcast="numpy" />
			<input>
				<port id="0" precision="FP16">
					<dim>1024</dim>
					<dim>32</dim>
					<dim>128</dim>
				</port>
				<port id="1" precision="FP16">
					<dim>1024</dim>
					<dim>32</dim>
					<dim>1</dim>
				</port>
			</input>
			<output>
				<port id="2" precision="FP16">
					<dim>1024</dim>
					<dim>32</dim>
					<dim>128</dim>
				</port>
			</output>
		</layer>
		<layer id="107" name="self.model.layers.0.self_attn.k_proj.weight/scale" type="Const" version="opset1">
			<data element_type="f16" shape="1024, 32, 1" offset="536584352" size="65536" />
			<output>
				<port id="0" precision="FP16">
					<dim>1024</dim>
					<dim>32</dim>
					<dim>1</dim>
				</port>
			</output>
		</layer>
		<layer id="108" name="self.model.layers.0.self_attn.k_proj.weight/fq_weights_1" type="Multiply" version="opset1">
			<data auto_broadcast="numpy" />
			<input>
				<port id="0" precision="FP16">
					<dim>1024</dim>
					<dim>32</dim>
					<dim>128</dim>
				</port>
				<port id="1" precision="FP16">
					<dim>1024</dim>
					<dim>32</dim>
					<dim>1</dim>
				</port>
			</input>
			<output>
				<port id="2" precision="FP16">
					<dim>1024</dim>
					<dim>32</dim>
					<dim>128</dim>
				</port>
			</output>
		</layer>
		<layer id="109" name="Constant_2040359" type="Const" version="opset1">
			<data element_type="i64" shape="2" offset="536649888" size="16" />
			<output>
				<port id="0" precision="I64">
					<dim>2</dim>
				</port>
			</output>
		</layer>
		<layer id="110" name="Reshape_2040360" type="Reshape" version="opset1">
			<data special_zero="false" />
			<input>
				<port id="0" precision="FP16">
					<dim>1024</dim>
					<dim>32</dim>
					<dim>128</dim>
				</port>
				<port id="1" precision="I64">
					<dim>2</dim>
				</port>
			</input>
			<output>
				<port id="2" precision="FP16">
					<dim>1024</dim>
					<dim>4096</dim>
				</port>
			</output>
		</layer>
		<layer id="111" name="__module.model.layers.0.self_attn.k_proj/ov_ext::linear/Convert" type="Convert" version="opset1">
			<data destination_type="f32" />
			<rt_info>
				<attribute name="decompression" version="0" />
			</rt_info>
			<input>
				<port id="0" precision="FP16">
					<dim>1024</dim>
					<dim>4096</dim>
				</port>
			</input>
			<output>
				<port id="1" precision="FP32">
					<dim>1024</dim>
					<dim>4096</dim>
				</port>
			</output>
		</layer>
		<layer id="112" name="__module.model.layers.0.self_attn.k_proj/ov_ext::linear/MatMul" type="MatMul" version="opset1">
			<data transpose_a="false" transpose_b="true" />
			<input>
				<port id="0" precision="FP32">
					<dim>-1</dim>
					<dim>-1</dim>
					<dim>4096</dim>
				</port>
				<port id="1" precision="FP32">
					<dim>1024</dim>
					<dim>4096</dim>
				</port>
			</input>
			<output>
				<port id="2" precision="FP32" names="420">
					<dim>-1</dim>
					<dim>-1</dim>
					<dim>1024</dim>
				</port>
			</output>
		</layer>
		<layer id="113" name="Constant_1311458" type="Const" version="opset1">
			<data element_type="i64" shape="4" offset="536649904" size="32" />
			<output>
				<port id="0" precision="I64">
					<dim>4</dim>
				</port>
			</output>
		</layer>
		<layer id="114" name="__module.model.layers.0.self_attn/aten::view/Reshape_1" type="Reshape" version="opset1">
			<data special_zero="true" />
			<input>
				<port id="0" precision="FP32">
					<dim>-1</dim>
					<dim>-1</dim>
					<dim>1024</dim>
				</port>
				<port id="1" precision="I64">
					<dim>4</dim>
				</port>
			</input>
			<output>
				<port id="2" precision="FP32" names="422">
					<dim>-1</dim>
					<dim>-1</dim>
					<dim>8</dim>
					<dim>128</dim>
				</port>
			</output>
		</layer>
		<layer id="115" name="__module.model.layers.0.self_attn/aten::transpose/Constant_1" type="Const" version="opset1">
			<data element_type="i32" shape="4" offset="534470496" size="16" />
			<output>
				<port id="0" precision="I32">
					<dim>4</dim>
				</port>
			</output>
		</layer>
		<layer id="116" name="__module.model.layers.0.self_attn/aten::transpose/Transpose_1" type="Transpose" version="opset1">
			<input>
				<port id="0" precision="FP32">
					<dim>-1</dim>
					<dim>-1</dim>
					<dim>8</dim>
					<dim>128</dim>
				</port>
				<port id="1" precision="I32">
					<dim>4</dim>
				</port>
			</input>
			<output>
				<port id="2" precision="FP32" names="423,k.1">
					<dim>-1</dim>
					<dim>8</dim>
					<dim>-1</dim>
					<dim>128</dim>
				</port>
			</output>
		</layer>
		<layer id="117" name="__module.model.layers.0.self_attn/aten::mul/Multiply_2" type="Multiply" version="opset1">
			<data auto_broadcast="numpy" />
			<input>
				<port id="0" precision="FP32">
					<dim>-1</dim>
					<dim>8</dim>
					<dim>-1</dim>
					<dim>128</dim>
				</port>
				<port id="1" precision="FP32">
					<dim>-1</dim>
					<dim>1</dim>
					<dim>-1</dim>
					<dim>128</dim>
				</port>
			</input>
			<output>
				<port id="2" precision="FP32" names="447">
					<dim>-1</dim>
					<dim>8</dim>
					<dim>-1</dim>
					<dim>128</dim>
				</port>
			</output>
		</layer>
		<layer id="118" name="Constant_1217963" type="Const" version="opset1">
			<data element_type="i64" shape="1" offset="534470788" size="8" />
			<output>
				<port id="0" precision="I64">
					<dim>1</dim>
				</port>
			</output>
		</layer>
		<layer id="119" name="Constant_1217965" type="Const" version="opset1">
			<data element_type="i64" shape="1" offset="534470796" size="8" />
			<output>
				<port id="0" precision="I64">
					<dim>1</dim>
				</port>
			</output>
		</layer>
		<layer id="120" name="Constant_1217967" type="Const" version="opset1">
			<data element_type="i64" shape="1" offset="534470768" size="8" />
			<output>
				<port id="0" precision="I64">
					<dim>1</dim>
				</port>
			</output>
		</layer>
		<layer id="121" name="Constant_1217919" type="Const" version="opset1">
			<data element_type="i64" shape="1" offset="534470804" size="8" />
			<output>
				<port id="0" precision="I64">
					<dim>1</dim>
				</port>
			</output>
		</layer>
		<layer id="122" name="__module.model.layers.0.self_attn/aten::slice/Slice_2" type="Slice" version="opset8">
			<input>
				<port id="0" precision="FP32">
					<dim>-1</dim>
					<dim>8</dim>
					<dim>-1</dim>
					<dim>128</dim>
				</port>
				<port id="1" precision="I64">
					<dim>1</dim>
				</port>
				<port id="2" precision="I64">
					<dim>1</dim>
				</port>
				<port id="3" precision="I64">
					<dim>1</dim>
				</port>
				<port id="4" precision="I64">
					<dim>1</dim>
				</port>
			</input>
			<output>
				<port id="5" precision="FP32" names="457,x2.3">
					<dim>-1</dim>
					<dim>8</dim>
					<dim>-1</dim>
					<dim>64</dim>
				</port>
			</output>
		</layer>
		<layer id="123" name="__module.model.layers.0.self_attn/aten::neg/Constant_1" type="Const" version="opset1">
			<data element_type="i32" shape="" offset="534470812" size="4" />
			<output>
				<port id="0" precision="I32" />
			</output>
		</layer>
		<layer id="124" name="__module.model.layers.0.self_attn/aten::neg/ConvertLike_1" type="Convert" version="opset1">
			<data destination_type="f32" />
			<input>
				<port id="0" precision="I32" />
			</input>
			<output>
				<port id="1" precision="FP32" />
			</output>
		</layer>
		<layer id="125" name="__module.model.layers.0.self_attn/aten::neg/Multiply_1" type="Multiply" version="opset1">
			<data auto_broadcast="numpy" />
			<input>
				<port id="0" precision="FP32">
					<dim>-1</dim>
					<dim>8</dim>
					<dim>-1</dim>
					<dim>64</dim>
				</port>
				<port id="1" precision="FP32" />
			</input>
			<output>
				<port id="2" precision="FP32" names="458">
					<dim>-1</dim>
					<dim>8</dim>
					<dim>-1</dim>
					<dim>64</dim>
				</port>
			</output>
		</layer>
		<layer id="126" name="Constant_1217860" type="Const" version="opset1">
			<data element_type="i64" shape="1" offset="4" size="8" />
			<output>
				<port id="0" precision="I64">
					<dim>1</dim>
				</port>
			</output>
		</layer>
		<layer id="127" name="Constant_1217904" type="Const" version="opset1">
			<data element_type="i64" shape="1" offset="534470788" size="8" />
			<output>
				<port id="0" precision="I64">
					<dim>1</dim>
				</port>
			</output>
		</layer>
		<layer id="128" name="Constant_1217906" type="Const" version="opset1">
			<data element_type="i64" shape="1" offset="534470768" size="8" />
			<output>
				<port id="0" precision="I64">
					<dim>1</dim>
				</port>
			</output>
		</layer>
		<layer id="129" name="Constant_1217858" type="Const" version="opset1">
			<data element_type="i64" shape="1" offset="534470804" size="8" />
			<output>
				<port id="0" precision="I64">
					<dim>1</dim>
				</port>
			</output>
		</layer>
		<layer id="130" name="__module.model.layers.0.self_attn/aten::slice/Slice_3" type="Slice" version="opset8">
			<input>
				<port id="0" precision="FP32">
					<dim>-1</dim>
					<dim>8</dim>
					<dim>-1</dim>
					<dim>128</dim>
				</port>
				<port id="1" precision="I64">
					<dim>1</dim>
				</port>
				<port id="2" precision="I64">
					<dim>1</dim>
				</port>
				<port id="3" precision="I64">
					<dim>1</dim>
				</port>
				<port id="4" precision="I64">
					<dim>1</dim>
				</port>
			</input>
			<output>
				<port id="5" precision="FP32" names="452,x1.3">
					<dim>-1</dim>
					<dim>8</dim>
					<dim>-1</dim>
					<dim>64</dim>
				</port>
			</output>
		</layer>
		<layer id="131" name="__module.model.layers.0.self_attn/aten::cat/Concat_1" type="Concat" version="opset1">
			<data axis="-1" />
			<input>
				<port id="0" precision="FP32">
					<dim>-1</dim>
					<dim>8</dim>
					<dim>-1</dim>
					<dim>64</dim>
				</port>
				<port id="1" precision="FP32">
					<dim>-1</dim>
					<dim>8</dim>
					<dim>-1</dim>
					<dim>64</dim>
				</port>
			</input>
			<output>
				<port id="2" precision="FP32" names="460">
					<dim>-1</dim>
					<dim>8</dim>
					<dim>-1</dim>
					<dim>128</dim>
				</port>
			</output>
		</layer>
		<layer id="132" name="__module.model.layers.0.self_attn/aten::mul/Multiply_3" type="Multiply" version="opset1">
			<data auto_broadcast="numpy" />
			<input>
				<port id="0" precision="FP32">
					<dim>-1</dim>
					<dim>8</dim>
					<dim>-1</dim>
					<dim>128</dim>
				</port>
				<port id="1" precision="FP32">
					<dim>-1</dim>
					<dim>1</dim>
					<dim>-1</dim>
					<dim>128</dim>
				</port>
			</input>
			<output>
				<port id="2" precision="FP32" names="461">
					<dim>-1</dim>
					<dim>8</dim>
					<dim>-1</dim>
					<dim>128</dim>
				</port>
			</output>
		</layer>
		<layer id="133" name="__module.model.layers.0.self_attn/aten::add/Add_1" type="Add" version="opset1">
			<data auto_broadcast="numpy" />
			<input>
				<port id="0" precision="FP32">
					<dim>-1</dim>
					<dim>8</dim>
					<dim>-1</dim>
					<dim>128</dim>
				</port>
				<port id="1" precision="FP32">
					<dim>-1</dim>
					<dim>8</dim>
					<dim>-1</dim>
					<dim>128</dim>
				</port>
			</input>
			<output>
				<port id="2" precision="FP32" names="462,key_states.3">
					<dim>-1</dim>
					<dim>8</dim>
					<dim>-1</dim>
					<dim>128</dim>
				</port>
			</output>
		</layer>
		<layer id="134" name="__module.model.layers.0.self_attn/aten::cat/Concat_2" type="Concat" version="opset1">
			<data axis="-2" />
			<input>
				<port id="0" precision="FP32">
					<dim>-1</dim>
					<dim>8</dim>
					<dim>-1</dim>
					<dim>128</dim>
				</port>
				<port id="1" precision="FP32">
					<dim>-1</dim>
					<dim>8</dim>
					<dim>-1</dim>
					<dim>128</dim>
				</port>
			</input>
			<output>
				<port id="2" precision="FP32" names="475,476,hidden_states.9">
					<dim>-1</dim>
					<dim>8</dim>
					<dim>-1</dim>
					<dim>128</dim>
				</port>
			</output>
		</layer>
		<layer id="135" name="246" type="Const" version="opset1">
			<data element_type="i64" shape="" offset="536649936" size="8" />
			<output>
				<port id="0" precision="I64" names="246" />
			</output>
		</layer>
		<layer id="136" name="__module.model.layers.0.self_attn/aten::unsqueeze/Unsqueeze_2" type="Unsqueeze" version="opset1">
			<input>
				<port id="0" precision="FP32">
					<dim>-1</dim>
					<dim>8</dim>
					<dim>-1</dim>
					<dim>128</dim>
				</port>
				<port id="1" precision="I64" />
			</input>
			<output>
				<port id="2" precision="FP32" names="477,478,479">
					<dim>-1</dim>
					<dim>8</dim>
					<dim>1</dim>
					<dim>-1</dim>
					<dim>128</dim>
				</port>
			</output>
		</layer>
		<layer id="137" name="__module.model.layers.0.self_attn/aten::size/ShapeOf_2" type="ShapeOf" version="opset3">
			<data output_type="i64" />
			<input>
				<port id="0" precision="FP32">
					<dim>-1</dim>
					<dim>8</dim>
					<dim>-1</dim>
					<dim>128</dim>
				</port>
			</input>
			<output>
				<port id="1" precision="I64">
					<dim>4</dim>
				</port>
			</output>
		</layer>
		<layer id="138" name="Constant_1285746" type="Const" version="opset1">
			<data element_type="i64" shape="2" offset="536649944" size="16" />
			<output>
				<port id="0" precision="I64">
					<dim>2</dim>
				</port>
			</output>
		</layer>
		<layer id="139" name="Constant_1285747" type="Const" version="opset1">
			<data element_type="i64" shape="" offset="4" size="8" />
			<output>
				<port id="0" precision="I64" />
			</output>
		</layer>
		<layer id="140" name="Gather_1285748" type="Gather" version="opset8">
			<data batch_dims="0" />
			<input>
				<port id="0" precision="I64">
					<dim>4</dim>
				</port>
				<port id="1" precision="I64">
					<dim>2</dim>
				</port>
				<port id="2" precision="I64" />
			</input>
			<output>
				<port id="3" precision="I64">
					<dim>2</dim>
				</port>
			</output>
		</layer>
		<layer id="141" name="Constant_1283489" type="Const" version="opset1">
			<data element_type="i64" shape="1" offset="536649960" size="8" />
			<output>
				<port id="0" precision="I64">
					<dim>1</dim>
				</port>
			</output>
		</layer>
		<layer id="142" name="ShapeOf_1303995" type="ShapeOf" version="opset3">
			<data output_type="i64" />
			<input>
				<port id="0" precision="FP32">
					<dim>-1</dim>
					<dim>8</dim>
					<dim>-1</dim>
					<dim>128</dim>
				</port>
			</input>
			<output>
				<port id="1" precision="I64">
					<dim>4</dim>
				</port>
			</output>
		</layer>
		<layer id="143" name="Constant_1303996" type="Const" version="opset1">
			<data element_type="i64" shape="" offset="536649936" size="8" />
			<output>
				<port id="0" precision="I64" />
			</output>
		</layer>
		<layer id="144" name="Constant_1303997" type="Const" version="opset1">
			<data element_type="i64" shape="" offset="4" size="8" />
			<output>
				<port id="0" precision="I64" />
			</output>
		</layer>
		<layer id="145" name="Gather_1303998" type="Gather" version="opset8">
			<data batch_dims="0" />
			<input>
				<port id="0" precision="I64">
					<dim>4</dim>
				</port>
				<port id="1" precision="I64" />
				<port id="2" precision="I64" />
			</input>
			<output>
				<port id="3" precision="I64" names="316" />
			</output>
		</layer>
		<layer id="146" name="Constant_1304009" type="Const" version="opset1">
			<data element_type="i64" shape="1" offset="534470768" size="8" />
			<output>
				<port id="0" precision="I64">
					<dim>1</dim>
				</port>
			</output>
		</layer>
		<layer id="147" name="Reshape_1304010" type="Reshape" version="opset1">
			<data special_zero="false" />
			<input>
				<port id="0" precision="I64" />
				<port id="1" precision="I64">
					<dim>1</dim>
				</port>
			</input>
			<output>
				<port id="2" precision="I64">
					<dim>1</dim>
				</port>
			</output>
		</layer>
		<layer id="148" name="Constant_1303964" type="Const" version="opset1">
			<data element_type="i64" shape="" offset="534470768" size="8" />
			<output>
				<port id="0" precision="I64" />
			</output>
		</layer>
		<layer id="149" name="Constant_1303965" type="Const" version="opset1">
			<data element_type="i64" shape="" offset="4" size="8" />
			<output>
				<port id="0" precision="I64" />
			</output>
		</layer>
		<layer id="150" name="Gather_1303966" type="Gather" version="opset8">
			<data batch_dims="0" />
			<input>
				<port id="0" precision="I64">
					<dim>3</dim>
				</port>
				<port id="1" precision="I64" />
				<port id="2" precision="I64" />
			</input>
			<output>
				<port id="3" precision="I64" names="318,323" />
			</output>
		</layer>
		<layer id="151" name="Constant_1304011" type="Const" version="opset1">
			<data element_type="i64" shape="1" offset="534470768" size="8" />
			<output>
				<port id="0" precision="I64">
					<dim>1</dim>
				</port>
			</output>
		</layer>
		<layer id="152" name="Reshape_1304012" type="Reshape" version="opset1">
			<data special_zero="false" />
			<input>
				<port id="0" precision="I64" />
				<port id="1" precision="I64">
					<dim>1</dim>
				</port>
			</input>
			<output>
				<port id="2" precision="I64">
					<dim>1</dim>
				</port>
			</output>
		</layer>
		<layer id="153" name="Add_1304013" type="Add" version="opset1">
			<data auto_broadcast="numpy" />
			<input>
				<port id="0" precision="I64">
					<dim>1</dim>
				</port>
				<port id="1" precision="I64">
					<dim>1</dim>
				</port>
			</input>
			<output>
				<port id="2" precision="I64" names="1105,1134,1263,1292,1421,1450,1579,1608,1737,1766,1895,1924,2053,2082,2211,2240,2369,2398,2527,2556,2685,2714,2843,2872,3001,3030,3159,3188,3317,3346,3475,3504,3633,3662,3791,3820,3949,3978,4107,4136,4265,4294,4423,4452,4581,4610,473,4739,4768,4897,4926,502,5055,5084,5213,5242,5371,5400,631,660,789,818,947,976">
					<dim>1</dim>
				</port>
			</output>
		</layer>
		<layer id="154" name="Constant_1283492" type="Const" version="opset1">
			<data element_type="i64" shape="1" offset="20" size="8" />
			<output>
				<port id="0" precision="I64">
					<dim>1</dim>
				</port>
			</output>
		</layer>
		<layer id="155" name="__module.model.layers.0.self_attn/prim::ListConstruct_2" type="Concat" version="opset1">
			<data axis="0" />
			<input>
				<port id="0" precision="I64">
					<dim>2</dim>
				</port>
				<port id="1" precision="I64">
					<dim>1</dim>
				</port>
				<port id="2" precision="I64">
					<dim>1</dim>
				</port>
				<port id="3" precision="I64">
					<dim>1</dim>
				</port>
			</input>
			<output>
				<port id="4" precision="I64">
					<dim>5</dim>
				</port>
			</output>
		</layer>
		<layer id="156" name="__module.model.layers.0.self_attn/aten::expand/Broadcast" type="Broadcast" version="opset3">
			<data mode="bidirectional" />
			<input>
				<port id="0" precision="FP32">
					<dim>-1</dim>
					<dim>8</dim>
					<dim>1</dim>
					<dim>-1</dim>
					<dim>128</dim>
				</port>
				<port id="1" precision="I64">
					<dim>5</dim>
				</port>
			</input>
			<output>
				<port id="2" precision="FP32" names="481,hidden_states.11">
					<dim>-1</dim>
					<dim>8</dim>
					<dim>4</dim>
					<dim>-1</dim>
					<dim>128</dim>
				</port>
			</output>
		</layer>
		<layer id="157" name="Constant_1311459" type="Const" version="opset1">
			<data element_type="i64" shape="4" offset="536649968" size="32" />
			<output>
				<port id="0" precision="I64">
					<dim>4</dim>
				</port>
			</output>
		</layer>
		<layer id="158" name="__module.model.layers.0.self_attn/aten::reshape/Reshape" type="Reshape" version="opset1">
			<data special_zero="true" />
			<input>
				<port id="0" precision="FP32">
					<dim>-1</dim>
					<dim>8</dim>
					<dim>4</dim>
					<dim>-1</dim>
					<dim>128</dim>
				</port>
				<port id="1" precision="I64">
					<dim>4</dim>
				</port>
			</input>
			<output>
				<port id="2" precision="FP32" names="485,key.1">
					<dim>-1</dim>
					<dim>32</dim>
					<dim>-1</dim>
					<dim>128</dim>
				</port>
			</output>
		</layer>
		<layer id="159" name="Constant_1314165" type="Const" version="opset1">
			<data element_type="f32" shape="" offset="0" size="4" />
			<output>
				<port id="0" precision="FP32" />
			</output>
		</layer>
		<layer id="160" name="Constant_1314158" type="Const" version="opset1">
			<data element_type="i64" shape="1" offset="12" size="8" />
			<output>
				<port id="0" precision="I64">
					<dim>1</dim>
				</port>
			</output>
		</layer>
		<layer id="161" name="Constant_1314160" type="Const" version="opset1">
			<data element_type="i64" shape="1" offset="4" size="8" />
			<output>
				<port id="0" precision="I64">
					<dim>1</dim>
				</port>
			</output>
		</layer>
		<layer id="162" name="Constant_1314162" type="Const" version="opset1">
			<data element_type="i64" shape="1" offset="20" size="8" />
			<output>
				<port id="0" precision="I64">
					<dim>1</dim>
				</port>
			</output>
		</layer>
		<layer id="163" name="Concat_1314163" type="Concat" version="opset1">
			<data axis="0" />
			<input>
				<port id="0" precision="I64">
					<dim>1</dim>
				</port>
				<port id="1" precision="I64">
					<dim>1</dim>
				</port>
				<port id="2" precision="I64">
					<dim>1</dim>
				</port>
				<port id="3" precision="I64">
					<dim>1</dim>
				</port>
			</input>
			<output>
				<port id="4" precision="I64">
					<dim>4</dim>
				</port>
			</output>
		</layer>
		<layer id="164" name="Broadcast_1314166" type="Broadcast" version="opset3">
			<data mode="numpy" />
			<input>
				<port id="0" precision="FP32" />
				<port id="1" precision="I64">
					<dim>4</dim>
				</port>
			</input>
			<output>
				<port id="2" precision="FP32">
					<dim>-1</dim>
					<dim>8</dim>
					<dim>0</dim>
					<dim>128</dim>
				</port>
			</output>
		</layer>
		<layer id="165" name="ReadValue_1313587" type="ReadValue" version="opset6">
			<data variable_id="past_key_values.0.valuepresent.0.value" variable_type="f32" variable_shape="?,8,?,128" />
			<input>
				<port id="0" precision="FP32">
					<dim>-1</dim>
					<dim>8</dim>
					<dim>0</dim>
					<dim>128</dim>
				</port>
			</input>
			<output>
				<port id="1" precision="FP32" names="past_key_values.0.value">
					<dim>-1</dim>
					<dim>8</dim>
					<dim>-1</dim>
					<dim>128</dim>
				</port>
			</output>
		</layer>
		<layer id="166" name="Constant_1312983" type="Const" version="opset1">
			<data element_type="i64" shape="" offset="4" size="8" />
			<output>
				<port id="0" precision="I64" />
			</output>
		</layer>
		<layer id="167" name="Gather_1312984" type="Gather" version="opset8">
			<data batch_dims="0" />
			<input>
				<port id="0" precision="FP32">
					<dim>-1</dim>
					<dim>8</dim>
					<dim>-1</dim>
					<dim>128</dim>
				</port>
				<port id="1" precision="I32">
					<dim>-1</dim>
				</port>
				<port id="2" precision="I64" />
			</input>
			<output>
				<port id="3" precision="FP32">
					<dim>-1</dim>
					<dim>8</dim>
					<dim>-1</dim>
					<dim>128</dim>
				</port>
			</output>
		</layer>
		<layer id="168" name="self.model.layers.0.self_attn.v_proj.weight" type="Const" version="opset1">
			<data element_type="u4" shape="1024, 32, 128" offset="536650000" size="2097152" />
			<output>
				<port id="0" precision="U4">
					<dim>1024</dim>
					<dim>32</dim>
					<dim>128</dim>
				</port>
			</output>
		</layer>
		<layer id="169" name="Convert_2044652" type="Convert" version="opset1">
			<data destination_type="f16" />
			<input>
				<port id="0" precision="U4">
					<dim>1024</dim>
					<dim>32</dim>
					<dim>128</dim>
				</port>
			</input>
			<output>
				<port id="1" precision="FP16">
					<dim>1024</dim>
					<dim>32</dim>
					<dim>128</dim>
				</port>
			</output>
		</layer>
		<layer id="170" name="self.model.layers.0.self_attn.v_proj.weight/zero_point" type="Const" version="opset1">
			<data element_type="u4" shape="1024, 32, 1" offset="538747152" size="16384" />
			<output>
				<port id="0" precision="U4">
					<dim>1024</dim>
					<dim>32</dim>
					<dim>1</dim>
				</port>
			</output>
		</layer>
		<layer id="171" name="Convert_2044655" type="Convert" version="opset1">
			<data destination_type="f16" />
			<input>
				<port id="0" precision="U4">
					<dim>1024</dim>
					<dim>32</dim>
					<dim>1</dim>
				</port>
			</input>
			<output>
				<port id="1" precision="FP16">
					<dim>1024</dim>
					<dim>32</dim>
					<dim>1</dim>
				</port>
			</output>
		</layer>
		<layer id="172" name="self.model.layers.0.self_attn.v_proj.weight/zero_point/subtract" type="Subtract" version="opset1">
			<data auto_broadcast="numpy" />
			<input>
				<port id="0" precision="FP16">
					<dim>1024</dim>
					<dim>32</dim>
					<dim>128</dim>
				</port>
				<port id="1" precision="FP16">
					<dim>1024</dim>
					<dim>32</dim>
					<dim>1</dim>
				</port>
			</input>
			<output>
				<port id="2" precision="FP16">
					<dim>1024</dim>
					<dim>32</dim>
					<dim>128</dim>
				</port>
			</output>
		</layer>
		<layer id="173" name="self.model.layers.0.self_attn.v_proj.weight/scale" type="Const" version="opset1">
			<data element_type="f16" shape="1024, 32, 1" offset="538763536" size="65536" />
			<output>
				<port id="0" precision="FP16">
					<dim>1024</dim>
					<dim>32</dim>
					<dim>1</dim>
				</port>
			</output>
		</layer>
		<layer id="174" name="self.model.layers.0.self_attn.v_proj.weight/fq_weights_1" type="Multiply" version="opset1">
			<data auto_broadcast="numpy" />
			<input>
				<port id="0" precision="FP16">
					<dim>1024</dim>
					<dim>32</dim>
					<dim>128</dim>
				</port>
				<port id="1" precision="FP16">
					<dim>1024</dim>
					<dim>32</dim>
					<dim>1</dim>
				</port>
			</input>
			<output>
				<port id="2" precision="FP16">
					<dim>1024</dim>
					<dim>32</dim>
					<dim>128</dim>
				</port>
			</output>
		</layer>
		<layer id="175" name="Constant_2044660" type="Const" version="opset1">
			<data element_type="i64" shape="2" offset="536649888" size="16" />
			<output>
				<port id="0" precision="I64">
					<dim>2</dim>
				</port>
			</output>
		</layer>
		<layer id="176" name="Reshape_2044661" type="Reshape" version="opset1">
			<data special_zero="false" />
			<input>
				<port id="0" precision="FP16">
					<dim>1024</dim>
					<dim>32</dim>
					<dim>128</dim>
				</port>
				<port id="1" precision="I64">
					<dim>2</dim>
				</port>
			</input>
			<output>
				<port id="2" precision="FP16">
					<dim>1024</dim>
					<dim>4096</dim>
				</port>
			</output>
		</layer>
		<layer id="177" name="__module.model.layers.0.self_attn.v_proj/ov_ext::linear/Convert" type="Convert" version="opset1">
			<data destination_type="f32" />
			<rt_info>
				<attribute name="decompression" version="0" />
			</rt_info>
			<input>
				<port id="0" precision="FP16">
					<dim>1024</dim>
					<dim>4096</dim>
				</port>
			</input>
			<output>
				<port id="1" precision="FP32">
					<dim>1024</dim>
					<dim>4096</dim>
				</port>
			</output>
		</layer>
		<layer id="178" name="__module.model.layers.0.self_attn.v_proj/ov_ext::linear/MatMul" type="MatMul" version="opset1">
			<data transpose_a="false" transpose_b="true" />
			<input>
				<port id="0" precision="FP32">
					<dim>-1</dim>
					<dim>-1</dim>
					<dim>4096</dim>
				</port>
				<port id="1" precision="FP32">
					<dim>1024</dim>
					<dim>4096</dim>
				</port>
			</input>
			<output>
				<port id="2" precision="FP32" names="425">
					<dim>-1</dim>
					<dim>-1</dim>
					<dim>1024</dim>
				</port>
			</output>
		</layer>
		<layer id="179" name="Constant_1311460" type="Const" version="opset1">
			<data element_type="i64" shape="4" offset="536649904" size="32" />
			<output>
				<port id="0" precision="I64">
					<dim>4</dim>
				</port>
			</output>
		</layer>
		<layer id="180" name="__module.model.layers.0.self_attn/aten::view/Reshape_2" type="Reshape" version="opset1">
			<data special_zero="true" />
			<input>
				<port id="0" precision="FP32">
					<dim>-1</dim>
					<dim>-1</dim>
					<dim>1024</dim>
				</port>
				<port id="1" precision="I64">
					<dim>4</dim>
				</port>
			</input>
			<output>
				<port id="2" precision="FP32" names="427">
					<dim>-1</dim>
					<dim>-1</dim>
					<dim>8</dim>
					<dim>128</dim>
				</port>
			</output>
		</layer>
		<layer id="181" name="__module.model.layers.0.self_attn/aten::transpose/Constant_2" type="Const" version="opset1">
			<data element_type="i32" shape="4" offset="534470496" size="16" />
			<output>
				<port id="0" precision="I32">
					<dim>4</dim>
				</port>
			</output>
		</layer>
		<layer id="182" name="__module.model.layers.0.self_attn/aten::transpose/Transpose_2" type="Transpose" version="opset1">
			<input>
				<port id="0" precision="FP32">
					<dim>-1</dim>
					<dim>-1</dim>
					<dim>8</dim>
					<dim>128</dim>
				</port>
				<port id="1" precision="I32">
					<dim>4</dim>
				</port>
			</input>
			<output>
				<port id="2" precision="FP32" names="428,value_states.1">
					<dim>-1</dim>
					<dim>8</dim>
					<dim>-1</dim>
					<dim>128</dim>
				</port>
			</output>
		</layer>
		<layer id="183" name="__module.model.layers.0.self_attn/aten::cat/Concat_3" type="Concat" version="opset1">
			<data axis="-2" />
			<input>
				<port id="0" precision="FP32">
					<dim>-1</dim>
					<dim>8</dim>
					<dim>-1</dim>
					<dim>128</dim>
				</port>
				<port id="1" precision="FP32">
					<dim>-1</dim>
					<dim>8</dim>
					<dim>-1</dim>
					<dim>128</dim>
				</port>
			</input>
			<output>
				<port id="2" precision="FP32" names="491,492,hidden_states.13">
					<dim>-1</dim>
					<dim>8</dim>
					<dim>-1</dim>
					<dim>128</dim>
				</port>
			</output>
		</layer>
		<layer id="184" name="__module.model.layers.0.self_attn/aten::unsqueeze/Unsqueeze_3" type="Unsqueeze" version="opset1">
			<input>
				<port id="0" precision="FP32">
					<dim>-1</dim>
					<dim>8</dim>
					<dim>-1</dim>
					<dim>128</dim>
				</port>
				<port id="1" precision="I64" />
			</input>
			<output>
				<port id="2" precision="FP32" names="493,494,495">
					<dim>-1</dim>
					<dim>8</dim>
					<dim>1</dim>
					<dim>-1</dim>
					<dim>128</dim>
				</port>
			</output>
		</layer>
		<layer id="185" name="__module.model.layers.0.self_attn/aten::expand/Broadcast_1" type="Broadcast" version="opset3">
			<data mode="bidirectional" />
			<input>
				<port id="0" precision="FP32">
					<dim>-1</dim>
					<dim>8</dim>
					<dim>1</dim>
					<dim>-1</dim>
					<dim>128</dim>
				</port>
				<port id="1" precision="I64">
					<dim>5</dim>
				</port>
			</input>
			<output>
				<port id="2" precision="FP32" names="497,hidden_states.15">
					<dim>-1</dim>
					<dim>8</dim>
					<dim>4</dim>
					<dim>-1</dim>
					<dim>128</dim>
				</port>
			</output>
		</layer>
		<layer id="186" name="Constant_1311461" type="Const" version="opset1">
			<data element_type="i64" shape="4" offset="536649968" size="32" />
			<output>
				<port id="0" precision="I64">
					<dim>4</dim>
				</port>
			</output>
		</layer>
		<layer id="187" name="__module.model.layers.0.self_attn/aten::reshape/Reshape_1" type="Reshape" version="opset1">
			<data special_zero="true" />
			<input>
				<port id="0" precision="FP32">
					<dim>-1</dim>
					<dim>8</dim>
					<dim>4</dim>
					<dim>-1</dim>
					<dim>128</dim>
				</port>
				<port id="1" precision="I64">
					<dim>4</dim>
				</port>
			</input>
			<output>
				<port id="2" precision="FP32" names="501,value.1">
					<dim>-1</dim>
					<dim>32</dim>
					<dim>-1</dim>
					<dim>128</dim>
				</port>
			</output>
		</layer>
		<layer id="188" name="__module.model/aten::triu/Constant" type="Const" version="opset1">
			<data element_type="i32" shape="" offset="0" size="4" />
			<output>
				<port id="0" precision="I32" />
			</output>
		</layer>
		<layer id="189" name="Multiply_1286694" type="Const" version="opset1">
			<data element_type="f32" shape="" offset="538829072" size="4" />
			<output>
				<port id="0" precision="FP32" />
			</output>
		</layer>
		<layer id="190" name="Constant_1286699" type="Const" version="opset1">
			<data element_type="i64" shape="2" offset="538829076" size="16" />
			<output>
				<port id="0" precision="I64">
					<dim>2</dim>
				</port>
			</output>
		</layer>
		<layer id="191" name="ShapeOf_1303971" type="ShapeOf" version="opset3">
			<data output_type="i64" />
			<input>
				<port id="0" precision="I64">
					<dim>-1</dim>
					<dim>-1</dim>
				</port>
			</input>
			<output>
				<port id="1" precision="I64">
					<dim>2</dim>
				</port>
			</output>
		</layer>
		<layer id="192" name="Constant_1303972" type="Const" version="opset1">
			<data element_type="i64" shape="" offset="534470768" size="8" />
			<output>
				<port id="0" precision="I64" />
			</output>
		</layer>
		<layer id="193" name="Constant_1303973" type="Const" version="opset1">
			<data element_type="i64" shape="" offset="4" size="8" />
			<output>
				<port id="0" precision="I64" />
			</output>
		</layer>
		<layer id="194" name="Gather_1303974" type="Gather" version="opset8">
			<data batch_dims="0" />
			<input>
				<port id="0" precision="I64">
					<dim>2</dim>
				</port>
				<port id="1" precision="I64" />
				<port id="2" precision="I64" />
			</input>
			<output>
				<port id="3" precision="I64" names="324,342" />
			</output>
		</layer>
		<layer id="195" name="Constant_1303975" type="Const" version="opset1">
			<data element_type="i64" shape="1" offset="534470768" size="8" />
			<output>
				<port id="0" precision="I64">
					<dim>1</dim>
				</port>
			</output>
		</layer>
		<layer id="196" name="Reshape_1303976" type="Reshape" version="opset1">
			<data special_zero="false" />
			<input>
				<port id="0" precision="I64" />
				<port id="1" precision="I64">
					<dim>1</dim>
				</port>
			</input>
			<output>
				<port id="2" precision="I64">
					<dim>1</dim>
				</port>
			</output>
		</layer>
		<layer id="197" name="__module.model/prim::ListConstruct" type="Concat" version="opset1">
			<data axis="0" />
			<input>
				<port id="0" precision="I64">
					<dim>1</dim>
				</port>
				<port id="1" precision="I64">
					<dim>1</dim>
				</port>
			</input>
			<output>
				<port id="2" precision="I64">
					<dim>2</dim>
				</port>
			</output>
		</layer>
		<layer id="198" name="Maximum_1286700" type="Maximum" version="opset1">
			<data auto_broadcast="numpy" />
			<input>
				<port id="0" precision="I64">
					<dim>2</dim>
				</port>
				<port id="1" precision="I64">
					<dim>2</dim>
				</port>
			</input>
			<output>
				<port id="2" precision="I64">
					<dim>2</dim>
				</port>
			</output>
		</layer>
		<layer id="199" name="__module.model/aten::mul/Multiply" type="Broadcast" version="opset3">
			<data mode="numpy" />
			<input>
				<port id="0" precision="FP32" />
				<port id="1" precision="I64">
					<dim>2</dim>
				</port>
			</input>
			<output>
				<port id="2" precision="FP32" names="327,causal_mask.1">
					<dim>-1</dim>
					<dim>-1</dim>
				</port>
			</output>
		</layer>
		<layer id="200" name="ShapeOf_1303981" type="ShapeOf" version="opset3">
			<data output_type="i32" />
			<input>
				<port id="0" precision="FP32">
					<dim>-1</dim>
					<dim>-1</dim>
				</port>
			</input>
			<output>
				<port id="1" precision="I32">
					<dim>2</dim>
				</port>
			</output>
		</layer>
		<layer id="201" name="Constant_1303982" type="Const" version="opset1">
			<data element_type="i64" shape="" offset="534470768" size="8" />
			<output>
				<port id="0" precision="I64" />
			</output>
		</layer>
		<layer id="202" name="Constant_1303983" type="Const" version="opset1">
			<data element_type="i64" shape="" offset="4" size="8" />
			<output>
				<port id="0" precision="I64" />
			</output>
		</layer>
		<layer id="203" name="Gather_1303984" type="Gather" version="opset8">
			<data batch_dims="0" />
			<input>
				<port id="0" precision="I32">
					<dim>2</dim>
				</port>
				<port id="1" precision="I64" />
				<port id="2" precision="I64" />
			</input>
			<output>
				<port id="3" precision="I32" />
			</output>
		</layer>
		<layer id="204" name="__module.model/aten::triu/Constant_2" type="Const" version="opset1">
			<data element_type="i32" shape="" offset="538829092" size="4" />
			<output>
				<port id="0" precision="I32" />
			</output>
		</layer>
		<layer id="205" name="__module.model/aten::triu/Range" type="Range" version="opset4">
			<data output_type="i32" />
			<input>
				<port id="0" precision="I32" />
				<port id="1" precision="I32" />
				<port id="2" precision="I32" />
			</input>
			<output>
				<port id="3" precision="I32">
					<dim>-1</dim>
				</port>
			</output>
		</layer>
		<layer id="206" name="__module.model/aten::triu/Unsqueeze" type="Unsqueeze" version="opset1">
			<input>
				<port id="0" precision="I32">
					<dim>-1</dim>
				</port>
				<port id="1" precision="I32" />
			</input>
			<output>
				<port id="2" precision="I32">
					<dim>1</dim>
					<dim>-1</dim>
				</port>
			</output>
		</layer>
		<layer id="207" name="__module.model/aten::triu/Convert" type="Const" version="opset1">
			<data element_type="i32" shape="" offset="538829092" size="4" />
			<output>
				<port id="0" precision="I32" />
			</output>
		</layer>
		<layer id="208" name="Constant_1303988" type="Const" version="opset1">
			<data element_type="i64" shape="" offset="4" size="8" />
			<output>
				<port id="0" precision="I64" />
			</output>
		</layer>
		<layer id="209" name="Constant_1303989" type="Const" version="opset1">
			<data element_type="i64" shape="" offset="4" size="8" />
			<output>
				<port id="0" precision="I64" />
			</output>
		</layer>
		<layer id="210" name="Gather_1303990" type="Gather" version="opset8">
			<data batch_dims="0" />
			<input>
				<port id="0" precision="I32">
					<dim>2</dim>
				</port>
				<port id="1" precision="I64" />
				<port id="2" precision="I64" />
			</input>
			<output>
				<port id="3" precision="I32" />
			</output>
		</layer>
		<layer id="211" name="__module.model/aten::triu/Add" type="Add" version="opset1">
			<data auto_broadcast="numpy" />
			<input>
				<port id="0" precision="I32" />
				<port id="1" precision="I32" />
			</input>
			<output>
				<port id="2" precision="I32" />
			</output>
		</layer>
		<layer id="212" name="__module.model/aten::triu/Range_1" type="Range" version="opset4">
			<data output_type="i32" />
			<input>
				<port id="0" precision="I32" />
				<port id="1" precision="I32" />
				<port id="2" precision="I32" />
			</input>
			<output>
				<port id="3" precision="I32">
					<dim>-1</dim>
				</port>
			</output>
		</layer>
		<layer id="213" name="__module.model/aten::triu/Unsqueeze_1" type="Unsqueeze" version="opset1">
			<input>
				<port id="0" precision="I32">
					<dim>-1</dim>
				</port>
				<port id="1" precision="I32" />
			</input>
			<output>
				<port id="2" precision="I32">
					<dim>-1</dim>
					<dim>1</dim>
				</port>
			</output>
		</layer>
		<layer id="214" name="__module.model/aten::triu/GreaterEqual" type="GreaterEqual" version="opset1">
			<data auto_broadcast="numpy" />
			<input>
				<port id="0" precision="I32">
					<dim>1</dim>
					<dim>-1</dim>
				</port>
				<port id="1" precision="I32">
					<dim>-1</dim>
					<dim>1</dim>
				</port>
			</input>
			<output>
				<port id="2" precision="BOOL">
					<dim>-1</dim>
					<dim>-1</dim>
				</port>
			</output>
		</layer>
		<layer id="215" name="__module.model/aten::triu/ConvertLike" type="Const" version="opset1">
			<data element_type="f32" shape="" offset="0" size="4" />
			<output>
				<port id="0" precision="FP32" />
			</output>
		</layer>
		<layer id="216" name="__module.model/aten::triu/Select" type="Select" version="opset1">
			<data auto_broadcast="numpy" />
			<input>
				<port id="0" precision="BOOL">
					<dim>-1</dim>
					<dim>-1</dim>
				</port>
				<port id="1" precision="FP32">
					<dim>-1</dim>
					<dim>-1</dim>
				</port>
				<port id="2" precision="FP32" />
			</input>
			<output>
				<port id="3" precision="FP32" names="328_1">
					<dim>-1</dim>
					<dim>-1</dim>
				</port>
			</output>
		</layer>
		<layer id="217" name="__module.model/aten::arange/Constant" type="Const" version="opset1">
			<data element_type="i32" shape="" offset="0" size="4" />
			<output>
				<port id="0" precision="I32" />
			</output>
		</layer>
		<layer id="218" name="__module.model/aten::arange/Constant_1" type="Const" version="opset1">
			<data element_type="i32" shape="" offset="538829092" size="4" />
			<output>
				<port id="0" precision="I32" />
			</output>
		</layer>
		<layer id="219" name="__module.model/aten::arange/Range" type="Range" version="opset4">
			<data output_type="f32" />
			<input>
				<port id="0" precision="I32" />
				<port id="1" precision="I64" />
				<port id="2" precision="I32" />
			</input>
			<output>
				<port id="3" precision="FP32">
					<dim>-1</dim>
				</port>
			</output>
		</layer>
		<layer id="220" name="__module.model/aten::arange/ConvertLike" type="Convert" version="opset1">
			<data destination_type="i64" />
			<input>
				<port id="0" precision="FP32">
					<dim>-1</dim>
				</port>
			</input>
			<output>
				<port id="1" precision="I64" names="329">
					<dim>-1</dim>
				</port>
			</output>
		</layer>
		<layer id="221" name="__module.model/aten::gt/Convert" type="Convert" version="opset1">
			<data destination_type="f32" />
			<input>
				<port id="0" precision="I64">
					<dim>-1</dim>
				</port>
			</input>
			<output>
				<port id="1" precision="FP32">
					<dim>-1</dim>
				</port>
			</output>
		</layer>
		<layer id="222" name="__module.model/aten::add/Add" type="Add" version="opset1">
			<data auto_broadcast="numpy" />
			<input>
				<port id="0" precision="I64" />
				<port id="1" precision="I64" />
			</input>
			<output>
				<port id="2" precision="I64" names="320" />
			</output>
		</layer>
		<layer id="223" name="__module.model/aten::arange/Constant_2" type="Const" version="opset1">
			<data element_type="i32" shape="" offset="538829092" size="4" />
			<output>
				<port id="0" precision="I32" />
			</output>
		</layer>
		<layer id="224" name="__module.model/aten::arange/Range_1" type="Range" version="opset4">
			<data output_type="f32" />
			<input>
				<port id="0" precision="I64" />
				<port id="1" precision="I64" />
				<port id="2" precision="I32" />
			</input>
			<output>
				<port id="3" precision="FP32" names="322,cache_position">
					<dim>-1</dim>
				</port>
			</output>
		</layer>
		<layer id="225" name="Constant_1217157" type="Const" version="opset1">
			<data element_type="i64" shape="2" offset="538829096" size="16" />
			<output>
				<port id="0" precision="I64" names="330">
					<dim>2</dim>
				</port>
			</output>
		</layer>
		<layer id="226" name="__module.model/aten::reshape/Reshape" type="Reshape" version="opset1">
			<data special_zero="false" />
			<input>
				<port id="0" precision="FP32">
					<dim>-1</dim>
				</port>
				<port id="1" precision="I64">
					<dim>2</dim>
				</port>
			</input>
			<output>
				<port id="2" precision="FP32" names="331">
					<dim>-1</dim>
					<dim>1</dim>
				</port>
			</output>
		</layer>
		<layer id="227" name="__module.model/aten::gt/Greater" type="Greater" version="opset1">
			<data auto_broadcast="numpy" />
			<input>
				<port id="0" precision="FP32">
					<dim>-1</dim>
				</port>
				<port id="1" precision="FP32">
					<dim>-1</dim>
					<dim>1</dim>
				</port>
			</input>
			<output>
				<port id="2" precision="BOOL" names="332">
					<dim>-1</dim>
					<dim>-1</dim>
				</port>
			</output>
		</layer>
		<layer id="228" name="__module.model/aten::mul_/ConvertLike" type="Convert" version="opset1">
			<data destination_type="f32" />
			<input>
				<port id="0" precision="BOOL">
					<dim>-1</dim>
					<dim>-1</dim>
				</port>
			</input>
			<output>
				<port id="1" precision="FP32">
					<dim>-1</dim>
					<dim>-1</dim>
				</port>
			</output>
		</layer>
		<layer id="229" name="__module.model/aten::mul_/Multiply" type="Multiply" version="opset1">
			<data auto_broadcast="numpy" />
			<input>
				<port id="0" precision="FP32">
					<dim>-1</dim>
					<dim>-1</dim>
				</port>
				<port id="1" precision="FP32">
					<dim>-1</dim>
					<dim>-1</dim>
				</port>
			</input>
			<output>
				<port id="2" precision="FP32" names="328,causal_mask.3">
					<dim>-1</dim>
					<dim>-1</dim>
				</port>
			</output>
		</layer>
		<layer id="230" name="238" type="Const" version="opset1">
			<data element_type="i64" shape="" offset="4" size="8" />
			<output>
				<port id="0" precision="I64" names="238" />
			</output>
		</layer>
		<layer id="231" name="__module.model/aten::unsqueeze/Unsqueeze" type="Unsqueeze" version="opset1">
			<input>
				<port id="0" precision="FP32">
					<dim>-1</dim>
					<dim>-1</dim>
				</port>
				<port id="1" precision="I64" />
			</input>
			<output>
				<port id="2" precision="FP32" names="334">
					<dim>1</dim>
					<dim>-1</dim>
					<dim>-1</dim>
				</port>
			</output>
		</layer>
		<layer id="232" name="__module.model/aten::unsqueeze/Unsqueeze_1" type="Unsqueeze" version="opset1">
			<input>
				<port id="0" precision="FP32">
					<dim>1</dim>
					<dim>-1</dim>
					<dim>-1</dim>
				</port>
				<port id="1" precision="I64" />
			</input>
			<output>
				<port id="2" precision="FP32" names="335,336,337">
					<dim>1</dim>
					<dim>1</dim>
					<dim>-1</dim>
					<dim>-1</dim>
				</port>
			</output>
		</layer>
		<layer id="233" name="Constant_1283520" type="Const" version="opset1">
			<data element_type="i64" shape="1" offset="534470768" size="8" />
			<output>
				<port id="0" precision="I64">
					<dim>1</dim>
				</port>
			</output>
		</layer>
		<layer id="234" name="Constant_1283522" type="Const" version="opset1">
			<data element_type="i64" shape="1" offset="534470768" size="8" />
			<output>
				<port id="0" precision="I64">
					<dim>1</dim>
				</port>
			</output>
		</layer>
		<layer id="235" name="Constant_1283524" type="Const" version="opset1">
			<data element_type="i64" shape="1" offset="534470768" size="8" />
			<output>
				<port id="0" precision="I64">
					<dim>1</dim>
				</port>
			</output>
		</layer>
		<layer id="236" name="__module.model/prim::ListConstruct_1" type="Concat" version="opset1">
			<data axis="0" />
			<input>
				<port id="0" precision="I64">
					<dim>1</dim>
				</port>
				<port id="1" precision="I64">
					<dim>1</dim>
				</port>
				<port id="2" precision="I64">
					<dim>1</dim>
				</port>
				<port id="3" precision="I64">
					<dim>1</dim>
				</port>
			</input>
			<output>
				<port id="4" precision="I64">
					<dim>4</dim>
				</port>
			</output>
		</layer>
		<layer id="237" name="__module.model/aten::expand/Broadcast" type="Broadcast" version="opset3">
			<data mode="bidirectional" />
			<input>
				<port id="0" precision="FP32">
					<dim>1</dim>
					<dim>1</dim>
					<dim>-1</dim>
					<dim>-1</dim>
				</port>
				<port id="1" precision="I64">
					<dim>4</dim>
				</port>
			</input>
			<output>
				<port id="2" precision="FP32" names="340,343,344,345,353,354,355,358_1,359_1,360_1,causal_mask.7">
					<dim>-1</dim>
					<dim>1</dim>
					<dim>-1</dim>
					<dim>-1</dim>
				</port>
			</output>
		</layer>
		<layer id="238" name="Constant_1272462" type="Const" version="opset1">
			<data element_type="i64" shape="1" offset="525754148" size="8" />
			<output>
				<port id="0" precision="I64">
					<dim>1</dim>
				</port>
			</output>
		</layer>
		<layer id="239" name="SliceAssign_1217374/Reshape_3" type="Reshape" version="opset1">
			<data special_zero="false" />
			<input>
				<port id="0" precision="FP32">
					<dim>-1</dim>
					<dim>1</dim>
					<dim>-1</dim>
					<dim>-1</dim>
				</port>
				<port id="1" precision="I64">
					<dim>1</dim>
				</port>
			</input>
			<output>
				<port id="2" precision="FP32">
					<dim>-1</dim>
				</port>
			</output>
		</layer>
		<layer id="240" name="Constant_1253091" type="Const" version="opset1">
			<data element_type="i64" shape="" offset="4" size="8" />
			<output>
				<port id="0" precision="I64" />
			</output>
		</layer>
		<layer id="241" name="SliceAssign_1217374/ShapeOf" type="ShapeOf" version="opset3">
			<data output_type="i64" />
			<input>
				<port id="0" precision="FP32">
					<dim>-1</dim>
					<dim>1</dim>
					<dim>-1</dim>
					<dim>-1</dim>
				</port>
			</input>
			<output>
				<port id="1" precision="I64">
					<dim>4</dim>
				</port>
			</output>
		</layer>
		<layer id="242" name="SliceAssign_1217374/ReduceProd" type="ReduceProd" version="opset1">
			<data keep_dims="false" />
			<input>
				<port id="0" precision="I64">
					<dim>4</dim>
				</port>
				<port id="1" precision="I64" />
			</input>
			<output>
				<port id="2" precision="I64" />
			</output>
		</layer>
		<layer id="243" name="Constant_1253092" type="Const" version="opset1">
			<data element_type="i64" shape="" offset="534470768" size="8" />
			<output>
				<port id="0" precision="I64" />
			</output>
		</layer>
		<layer id="244" name="SliceAssign_1217374/Range" type="Range" version="opset4">
			<data output_type="i64" />
			<input>
				<port id="0" precision="I64" />
				<port id="1" precision="I64" />
				<port id="2" precision="I64" />
			</input>
			<output>
				<port id="3" precision="I64">
					<dim>-1</dim>
				</port>
			</output>
		</layer>
		<layer id="245" name="SliceAssign_1217374/Reshape" type="Reshape" version="opset1">
			<data special_zero="false" />
			<input>
				<port id="0" precision="I64">
					<dim>-1</dim>
				</port>
				<port id="1" precision="I64">
					<dim>4</dim>
				</port>
			</input>
			<output>
				<port id="2" precision="I64">
					<dim>-1</dim>
					<dim>1</dim>
					<dim>-1</dim>
					<dim>-1</dim>
				</port>
			</output>
		</layer>
		<layer id="246" name="Constant_1217364" type="Const" version="opset1">
			<data element_type="i64" shape="1" offset="4" size="8" />
			<output>
				<port id="0" precision="I64">
					<dim>1</dim>
				</port>
			</output>
		</layer>
		<layer id="247" name="Constant_1217367" type="Const" version="opset1">
			<data element_type="i64" shape="1" offset="534470768" size="8" />
			<output>
				<port id="0" precision="I64">
					<dim>1</dim>
				</port>
			</output>
		</layer>
		<layer id="248" name="Constant_1217362" type="Const" version="opset1">
			<data element_type="i64" shape="1" offset="534470804" size="8" />
			<output>
				<port id="0" precision="I64">
					<dim>1</dim>
				</port>
			</output>
		</layer>
		<layer id="249" name="SliceAssign_1217374/Slice_2" type="Slice" version="opset8">
			<input>
				<port id="0" precision="I64">
					<dim>-1</dim>
					<dim>1</dim>
					<dim>-1</dim>
					<dim>-1</dim>
				</port>
				<port id="1" precision="I64">
					<dim>1</dim>
				</port>
				<port id="2" precision="I64">
					<dim>1</dim>
				</port>
				<port id="3" precision="I64">
					<dim>1</dim>
				</port>
				<port id="4" precision="I64">
					<dim>1</dim>
				</port>
			</input>
			<output>
				<port id="5" precision="I64">
					<dim>-1</dim>
					<dim>1</dim>
					<dim>-1</dim>
					<dim>-1</dim>
				</port>
			</output>
		</layer>
		<layer id="250" name="Constant_1253094" type="Const" version="opset1">
			<data element_type="i64" shape="2" offset="538829096" size="16" />
			<output>
				<port id="0" precision="I64">
					<dim>2</dim>
				</port>
			</output>
		</layer>
		<layer id="251" name="SliceAssign_1217374/Reshape_4" type="Reshape" version="opset1">
			<data special_zero="false" />
			<input>
				<port id="0" precision="I64">
					<dim>-1</dim>
					<dim>1</dim>
					<dim>-1</dim>
					<dim>-1</dim>
				</port>
				<port id="1" precision="I64">
					<dim>2</dim>
				</port>
			</input>
			<output>
				<port id="2" precision="I64">
					<dim>-1</dim>
					<dim>1</dim>
				</port>
			</output>
		</layer>
		<layer id="252" name="Constant_1217247" type="Const" version="opset1">
			<data element_type="i64" shape="1" offset="4" size="8" />
			<output>
				<port id="0" precision="I64">
					<dim>1</dim>
				</port>
			</output>
		</layer>
		<layer id="253" name="Constant_1217250" type="Const" version="opset1">
			<data element_type="i64" shape="1" offset="534470768" size="8" />
			<output>
				<port id="0" precision="I64">
					<dim>1</dim>
				</port>
			</output>
		</layer>
		<layer id="254" name="Constant_1217245" type="Const" version="opset1">
			<data element_type="i64" shape="1" offset="534470804" size="8" />
			<output>
				<port id="0" precision="I64">
					<dim>1</dim>
				</port>
			</output>
		</layer>
		<layer id="255" name="__module.model/aten::slice/Slice_5" type="Slice" version="opset8">
			<input>
				<port id="0" precision="FP32">
					<dim>-1</dim>
					<dim>1</dim>
					<dim>-1</dim>
					<dim>-1</dim>
				</port>
				<port id="1" precision="I64">
					<dim>1</dim>
				</port>
				<port id="2" precision="I64">
					<dim>1</dim>
				</port>
				<port id="3" precision="I64">
					<dim>1</dim>
				</port>
				<port id="4" precision="I64">
					<dim>1</dim>
				</port>
			</input>
			<output>
				<port id="5" precision="FP32" names="346,356,361_1">
					<dim>-1</dim>
					<dim>1</dim>
					<dim>-1</dim>
					<dim>-1</dim>
				</port>
			</output>
		</layer>
		<layer id="256" name="__module.model/aten::unsqueeze/Unsqueeze_2" type="Unsqueeze" version="opset1">
			<input>
				<port id="0" precision="I64">
					<dim>-1</dim>
					<dim>-1</dim>
				</port>
				<port id="1" precision="I64" />
			</input>
			<output>
				<port id="2" precision="I64" names="348">
					<dim>-1</dim>
					<dim>1</dim>
					<dim>-1</dim>
				</port>
			</output>
		</layer>
		<layer id="257" name="__module.model/aten::unsqueeze/Unsqueeze_3" type="Unsqueeze" version="opset1">
			<input>
				<port id="0" precision="I64">
					<dim>-1</dim>
					<dim>1</dim>
					<dim>-1</dim>
				</port>
				<port id="1" precision="I64" />
			</input>
			<output>
				<port id="2" precision="I64" names="349,350">
					<dim>-1</dim>
					<dim>1</dim>
					<dim>1</dim>
					<dim>-1</dim>
				</port>
			</output>
		</layer>
		<layer id="258" name="__module.model/aten::add/Convert" type="Convert" version="opset1">
			<data destination_type="f32" />
			<input>
				<port id="0" precision="I64">
					<dim>-1</dim>
					<dim>1</dim>
					<dim>1</dim>
					<dim>-1</dim>
				</port>
			</input>
			<output>
				<port id="1" precision="FP32">
					<dim>-1</dim>
					<dim>1</dim>
					<dim>1</dim>
					<dim>-1</dim>
				</port>
			</output>
		</layer>
		<layer id="259" name="__module.model/aten::add/Add_1" type="Add" version="opset1">
			<data auto_broadcast="numpy" />
			<input>
				<port id="0" precision="FP32">
					<dim>-1</dim>
					<dim>1</dim>
					<dim>-1</dim>
					<dim>-1</dim>
				</port>
				<port id="1" precision="FP32">
					<dim>-1</dim>
					<dim>1</dim>
					<dim>1</dim>
					<dim>-1</dim>
				</port>
			</input>
			<output>
				<port id="2" precision="FP32" names="351,padding_mask.1">
					<dim>-1</dim>
					<dim>1</dim>
					<dim>-1</dim>
					<dim>-1</dim>
				</port>
			</output>
		</layer>
		<layer id="260" name="Constant_1301951" type="Const" version="opset1">
			<data element_type="f32" shape="1, 1, 1, 1" offset="0" size="4" />
			<output>
				<port id="0" precision="FP32">
					<dim>1</dim>
					<dim>1</dim>
					<dim>1</dim>
					<dim>1</dim>
				</port>
			</output>
		</layer>
		<layer id="261" name="__module.model/aten::eq/Equal" type="Equal" version="opset1">
			<data auto_broadcast="numpy" />
			<input>
				<port id="0" precision="FP32">
					<dim>-1</dim>
					<dim>1</dim>
					<dim>-1</dim>
					<dim>-1</dim>
				</port>
				<port id="1" precision="FP32">
					<dim>1</dim>
					<dim>1</dim>
					<dim>1</dim>
					<dim>1</dim>
				</port>
			</input>
			<output>
				<port id="2" precision="BOOL" names="352,padding_mask">
					<dim>-1</dim>
					<dim>1</dim>
					<dim>-1</dim>
					<dim>-1</dim>
				</port>
			</output>
		</layer>
		<layer id="262" name="__module.model/aten::masked_fill/ConvertLike" type="Const" version="opset1">
			<data element_type="f32" shape="" offset="538829072" size="4" />
			<output>
				<port id="0" precision="FP32" />
			</output>
		</layer>
		<layer id="263" name="__module.model/aten::masked_fill/Select" type="Select" version="opset1">
			<data auto_broadcast="numpy" />
			<input>
				<port id="0" precision="BOOL">
					<dim>-1</dim>
					<dim>1</dim>
					<dim>-1</dim>
					<dim>-1</dim>
				</port>
				<port id="1" precision="FP32" />
				<port id="2" precision="FP32">
					<dim>-1</dim>
					<dim>1</dim>
					<dim>-1</dim>
					<dim>-1</dim>
				</port>
			</input>
			<output>
				<port id="3" precision="FP32" names="357">
					<dim>-1</dim>
					<dim>1</dim>
					<dim>-1</dim>
					<dim>-1</dim>
				</port>
			</output>
		</layer>
		<layer id="264" name="__module.model/aten::copy_/ShapeOf" type="ShapeOf" version="opset3">
			<data output_type="i64" />
			<input>
				<port id="0" precision="FP32">
					<dim>-1</dim>
					<dim>1</dim>
					<dim>-1</dim>
					<dim>-1</dim>
				</port>
			</input>
			<output>
				<port id="1" precision="I64">
					<dim>4</dim>
				</port>
			</output>
		</layer>
		<layer id="265" name="__module.model/aten::copy_/Broadcast" type="Broadcast" version="opset3">
			<data mode="numpy" />
			<input>
				<port id="0" precision="FP32">
					<dim>-1</dim>
					<dim>1</dim>
					<dim>-1</dim>
					<dim>-1</dim>
				</port>
				<port id="1" precision="I64">
					<dim>4</dim>
				</port>
			</input>
			<output>
				<port id="2" precision="FP32" names="361">
					<dim>-1</dim>
					<dim>1</dim>
					<dim>-1</dim>
					<dim>-1</dim>
				</port>
			</output>
		</layer>
		<layer id="266" name="Constant_1272464" type="Const" version="opset1">
			<data element_type="i64" shape="1" offset="525754148" size="8" />
			<output>
				<port id="0" precision="I64">
					<dim>1</dim>
				</port>
			</output>
		</layer>
		<layer id="267" name="SliceAssign_1217374/Reshape_5" type="Reshape" version="opset1">
			<data special_zero="false" />
			<input>
				<port id="0" precision="FP32">
					<dim>-1</dim>
					<dim>1</dim>
					<dim>-1</dim>
					<dim>-1</dim>
				</port>
				<port id="1" precision="I64">
					<dim>1</dim>
				</port>
			</input>
			<output>
				<port id="2" precision="FP32">
					<dim>-1</dim>
				</port>
			</output>
		</layer>
		<layer id="268" name="SliceAssign_1217374/ScatterNDUpdate" type="ScatterNDUpdate" version="opset4">
			<input>
				<port id="0" precision="FP32">
					<dim>-1</dim>
				</port>
				<port id="1" precision="I64">
					<dim>-1</dim>
					<dim>1</dim>
				</port>
				<port id="2" precision="FP32">
					<dim>-1</dim>
				</port>
			</input>
			<output>
				<port id="3" precision="FP32">
					<dim>-1</dim>
				</port>
			</output>
		</layer>
		<layer id="269" name="SliceAssign_1217374/Reshape_6" type="Reshape" version="opset1">
			<data special_zero="false" />
			<input>
				<port id="0" precision="FP32">
					<dim>-1</dim>
				</port>
				<port id="1" precision="I64">
					<dim>4</dim>
				</port>
			</input>
			<output>
				<port id="2" precision="FP32" names="1135,1136,1137,1293,1294,1295,1451,1452,1453,1609,1610,1611,1767,1768,1769,1925,1926,1927,2083,2084,2085,2241,2242,2243,2399,2400,2401,2557,2558,2559,2715,2716,2717,2873,2874,2875,3031,3032,3033,3189,3190,3191,3347,3348,3349,341,3505,3506,3507,3663,3664,3665,3821,3822,3823,3979,3980,3981,4137,4138,4139,4295,4296,4297,4453,4454,4455,4611,4612,4613,4769,4770,4771,4927,4928,4929,503,504,505,5085,5086,5087,5243,5244,5245,5401,5402,5403,661,662,663,819,820,821,977,978,979">
					<dim>-1</dim>
					<dim>1</dim>
					<dim>-1</dim>
					<dim>-1</dim>
				</port>
			</output>
		</layer>
		<layer id="270" name="Constant_1218467" type="Const" version="opset1">
			<data element_type="i64" shape="1" offset="4" size="8" />
			<output>
				<port id="0" precision="I64">
					<dim>1</dim>
				</port>
			</output>
		</layer>
		<layer id="271" name="Constant_1218470" type="Const" version="opset1">
			<data element_type="i64" shape="1" offset="534470768" size="8" />
			<output>
				<port id="0" precision="I64">
					<dim>1</dim>
				</port>
			</output>
		</layer>
		<layer id="272" name="Constant_1218465" type="Const" version="opset1">
			<data element_type="i64" shape="1" offset="534470804" size="8" />
			<output>
				<port id="0" precision="I64">
					<dim>1</dim>
				</port>
			</output>
		</layer>
		<layer id="273" name="__module.model.layers.0.self_attn/aten::slice/Slice_15" type="Slice" version="opset8">
			<input>
				<port id="0" precision="FP32">
					<dim>-1</dim>
					<dim>1</dim>
					<dim>-1</dim>
					<dim>-1</dim>
				</port>
				<port id="1" precision="I64">
					<dim>1</dim>
				</port>
				<port id="2" precision="I64">
					<dim>1</dim>
				</port>
				<port id="3" precision="I64">
					<dim>1</dim>
				</port>
				<port id="4" precision="I64">
					<dim>1</dim>
				</port>
			</input>
			<output>
				<port id="5" precision="FP32" names="1138,1296,1454,1612,1770,1928,2086,2244,2402,2560,2718,2876,3034,3192,3350,3508,3666,3824,3982,4140,4298,4456,4614,4772,4930,506,5088,5246,5404,664,822,980,causal_mask,causal_mask.11,causal_mask.13,causal_mask.15,causal_mask.17,causal_mask.19,causal_mask.21,causal_mask.23,causal_mask.25,causal_mask.27,causal_mask.29,causal_mask.31,causal_mask.33,causal_mask.35,causal_mask.37,causal_mask.39,causal_mask.41,causal_mask.43,causal_mask.45,causal_mask.47,causal_mask.49,causal_mask.51,causal_mask.53,causal_mask.55,causal_mask.57,causal_mask.59,causal_mask.61,causal_mask.63,causal_mask.65,causal_mask.67,causal_mask.69,causal_mask.71">
					<dim>-1</dim>
					<dim>1</dim>
					<dim>-1</dim>
					<dim>-1</dim>
				</port>
			</output>
		</layer>
		<layer id="274" name="__module.model.layers.0.self_attn/aten::scaled_dot_product_attention/ConvertLike" type="Const" version="opset1">
			<data element_type="f32" shape="" offset="538829112" size="4" />
			<output>
				<port id="0" precision="FP32" />
			</output>
		</layer>
		<layer id="275" name="__module.model.layers.0.self_attn/aten::scaled_dot_product_attention/ScaledDotProductAttention" type="ScaledDotProductAttention" version="opset13">
			<data causal="false" />
			<input>
				<port id="0" precision="FP32">
					<dim>-1</dim>
					<dim>32</dim>
					<dim>-1</dim>
					<dim>128</dim>
				</port>
				<port id="1" precision="FP32">
					<dim>-1</dim>
					<dim>32</dim>
					<dim>-1</dim>
					<dim>128</dim>
				</port>
				<port id="2" precision="FP32">
					<dim>-1</dim>
					<dim>32</dim>
					<dim>-1</dim>
					<dim>128</dim>
				</port>
				<port id="3" precision="FP32">
					<dim>-1</dim>
					<dim>1</dim>
					<dim>-1</dim>
					<dim>-1</dim>
				</port>
				<port id="4" precision="FP32" />
			</input>
			<output>
				<port id="5" precision="FP32" names="510,attn_output.1">
					<dim>-1</dim>
					<dim>32</dim>
					<dim>-1</dim>
					<dim>128</dim>
				</port>
			</output>
		</layer>
		<layer id="276" name="__module.model.layers.0.self_attn/aten::transpose/Constant_3" type="Const" version="opset1">
			<data element_type="i32" shape="4" offset="534470496" size="16" />
			<output>
				<port id="0" precision="I32">
					<dim>4</dim>
				</port>
			</output>
		</layer>
		<layer id="277" name="__module.model.layers.0.self_attn/aten::transpose/Transpose_3" type="Transpose" version="opset1">
			<input>
				<port id="0" precision="FP32">
					<dim>-1</dim>
					<dim>32</dim>
					<dim>-1</dim>
					<dim>128</dim>
				</port>
				<port id="1" precision="I32">
					<dim>4</dim>
				</port>
			</input>
			<output>
				<port id="2" precision="FP32" names="511">
					<dim>-1</dim>
					<dim>-1</dim>
					<dim>32</dim>
					<dim>128</dim>
				</port>
			</output>
		</layer>
		<layer id="278" name="Constant_1285741" type="Const" version="opset1">
			<data element_type="i64" shape="2" offset="536649944" size="16" />
			<output>
				<port id="0" precision="I64">
					<dim>2</dim>
				</port>
			</output>
		</layer>
		<layer id="279" name="Constant_1285742" type="Const" version="opset1">
			<data element_type="i64" shape="" offset="4" size="8" />
			<output>
				<port id="0" precision="I64" />
			</output>
		</layer>
		<layer id="280" name="Gather_1285743" type="Gather" version="opset8">
			<data batch_dims="0" />
			<input>
				<port id="0" precision="I64">
					<dim>3</dim>
				</port>
				<port id="1" precision="I64">
					<dim>2</dim>
				</port>
				<port id="2" precision="I64" />
			</input>
			<output>
				<port id="3" precision="I64">
					<dim>2</dim>
				</port>
			</output>
		</layer>
		<layer id="281" name="Constant_1218512" type="Const" version="opset1">
			<data element_type="i64" shape="1" offset="525754148" size="8" />
			<output>
				<port id="0" precision="I64">
					<dim>1</dim>
				</port>
			</output>
		</layer>
		<layer id="282" name="__module.model.layers.0.self_attn/prim::ListConstruct_7" type="Concat" version="opset1">
			<data axis="0" />
			<input>
				<port id="0" precision="I64">
					<dim>2</dim>
				</port>
				<port id="1" precision="I64">
					<dim>1</dim>
				</port>
			</input>
			<output>
				<port id="2" precision="I64">
					<dim>3</dim>
				</port>
			</output>
		</layer>
		<layer id="283" name="__module.model.layers.0.self_attn/aten::reshape/Reshape_2" type="Reshape" version="opset1">
			<data special_zero="false" />
			<input>
				<port id="0" precision="FP32">
					<dim>-1</dim>
					<dim>-1</dim>
					<dim>32</dim>
					<dim>128</dim>
				</port>
				<port id="1" precision="I64">
					<dim>3</dim>
				</port>
			</input>
			<output>
				<port id="2" precision="FP32" names="514">
					<dim>-1</dim>
					<dim>-1</dim>
					<dim>-1</dim>
				</port>
			</output>
		</layer>
		<layer id="284" name="self.model.layers.0.self_attn.o_proj.weight" type="Const" version="opset1">
			<data element_type="u4" shape="4096, 32, 128" offset="538829116" size="8388608" />
			<output>
				<port id="0" precision="U4">
					<dim>4096</dim>
					<dim>32</dim>
					<dim>128</dim>
				</port>
			</output>
		</layer>
		<layer id="285" name="Convert_1769388" type="Convert" version="opset1">
			<data destination_type="f16" />
			<input>
				<port id="0" precision="U4">
					<dim>4096</dim>
					<dim>32</dim>
					<dim>128</dim>
				</port>
			</input>
			<output>
				<port id="1" precision="FP16">
					<dim>4096</dim>
					<dim>32</dim>
					<dim>128</dim>
				</port>
			</output>
		</layer>
		<layer id="286" name="self.model.layers.0.self_attn.o_proj.weight/zero_point" type="Const" version="opset1">
			<data element_type="u4" shape="4096, 32, 1" offset="547217724" size="65536" />
			<output>
				<port id="0" precision="U4">
					<dim>4096</dim>
					<dim>32</dim>
					<dim>1</dim>
				</port>
			</output>
		</layer>
		<layer id="287" name="Convert_1769391" type="Convert" version="opset1">
			<data destination_type="f16" />
			<input>
				<port id="0" precision="U4">
					<dim>4096</dim>
					<dim>32</dim>
					<dim>1</dim>
				</port>
			</input>
			<output>
				<port id="1" precision="FP16">
					<dim>4096</dim>
					<dim>32</dim>
					<dim>1</dim>
				</port>
			</output>
		</layer>
		<layer id="288" name="self.model.layers.0.self_attn.o_proj.weight/zero_point/subtract" type="Subtract" version="opset1">
			<data auto_broadcast="numpy" />
			<input>
				<port id="0" precision="FP16">
					<dim>4096</dim>
					<dim>32</dim>
					<dim>128</dim>
				</port>
				<port id="1" precision="FP16">
					<dim>4096</dim>
					<dim>32</dim>
					<dim>1</dim>
				</port>
			</input>
			<output>
				<port id="2" precision="FP16">
					<dim>4096</dim>
					<dim>32</dim>
					<dim>128</dim>
				</port>
			</output>
		</layer>
		<layer id="289" name="self.model.layers.0.self_attn.o_proj.weight/scale" type="Const" version="opset1">
			<data element_type="f16" shape="4096, 32, 1" offset="547283260" size="262144" />
			<output>
				<port id="0" precision="FP16">
					<dim>4096</dim>
					<dim>32</dim>
					<dim>1</dim>
				</port>
			</output>
		</layer>
		<layer id="290" name="self.model.layers.0.self_attn.o_proj.weight/fq_weights_1" type="Multiply" version="opset1">
			<data auto_broadcast="numpy" />
			<input>
				<port id="0" precision="FP16">
					<dim>4096</dim>
					<dim>32</dim>
					<dim>128</dim>
				</port>
				<port id="1" precision="FP16">
					<dim>4096</dim>
					<dim>32</dim>
					<dim>1</dim>
				</port>
			</input>
			<output>
				<port id="2" precision="FP16">
					<dim>4096</dim>
					<dim>32</dim>
					<dim>128</dim>
				</port>
			</output>
		</layer>
		<layer id="291" name="Constant_1769396" type="Const" version="opset1">
			<data element_type="i64" shape="2" offset="534470448" size="16" />
			<output>
				<port id="0" precision="I64">
					<dim>2</dim>
				</port>
			</output>
		</layer>
		<layer id="292" name="Reshape_1769397" type="Reshape" version="opset1">
			<data special_zero="false" />
			<input>
				<port id="0" precision="FP16">
					<dim>4096</dim>
					<dim>32</dim>
					<dim>128</dim>
				</port>
				<port id="1" precision="I64">
					<dim>2</dim>
				</port>
			</input>
			<output>
				<port id="2" precision="FP16">
					<dim>4096</dim>
					<dim>4096</dim>
				</port>
			</output>
		</layer>
		<layer id="293" name="__module.model.layers.0.self_attn.o_proj/ov_ext::linear/Convert" type="Convert" version="opset1">
			<data destination_type="f32" />
			<rt_info>
				<attribute name="decompression" version="0" />
			</rt_info>
			<input>
				<port id="0" precision="FP16">
					<dim>4096</dim>
					<dim>4096</dim>
				</port>
			</input>
			<output>
				<port id="1" precision="FP32">
					<dim>4096</dim>
					<dim>4096</dim>
				</port>
			</output>
		</layer>
		<layer id="294" name="__module.model.layers.0.self_attn.o_proj/ov_ext::linear/MatMul" type="MatMul" version="opset1">
			<data transpose_a="false" transpose_b="true" />
			<input>
				<port id="0" precision="FP32">
					<dim>-1</dim>
					<dim>-1</dim>
					<dim>-1</dim>
				</port>
				<port id="1" precision="FP32">
					<dim>4096</dim>
					<dim>4096</dim>
				</port>
			</input>
			<output>
				<port id="2" precision="FP32" names="517,519,hidden_states.17">
					<dim>-1</dim>
					<dim>-1</dim>
					<dim>4096</dim>
				</port>
			</output>
		</layer>
		<layer id="295" name="__module.model.layers.0/aten::add/Add" type="Add" version="opset1">
			<data auto_broadcast="numpy" />
			<input>
				<port id="0" precision="FP32">
					<dim>-1</dim>
					<dim>-1</dim>
					<dim>4096</dim>
				</port>
				<port id="1" precision="FP32">
					<dim>-1</dim>
					<dim>-1</dim>
					<dim>4096</dim>
				</port>
			</input>
			<output>
				<port id="2" precision="FP32" names="522,524,535,hidden_states.19,hidden_states.21">
					<dim>-1</dim>
					<dim>-1</dim>
					<dim>4096</dim>
				</port>
			</output>
		</layer>
		<layer id="296" name="Constant_1301955" type="Const" version="opset1">
			<data element_type="f32" shape="1, 1, 4096" offset="547545404" size="16384" />
			<output>
				<port id="0" precision="FP32">
					<dim>1</dim>
					<dim>1</dim>
					<dim>4096</dim>
				</port>
			</output>
		</layer>
		<layer id="297" name="Constant_1301954" type="Const" version="opset1">
			<data element_type="f32" shape="1, 1, 1" offset="525754140" size="4" />
			<output>
				<port id="0" precision="FP32">
					<dim>1</dim>
					<dim>1</dim>
					<dim>1</dim>
				</port>
			</output>
		</layer>
		<layer id="298" name="Constant_1301952" type="Const" version="opset1">
			<data element_type="f32" shape="1, 1, 1" offset="525754144" size="4" />
			<output>
				<port id="0" precision="FP32">
					<dim>1</dim>
					<dim>1</dim>
					<dim>1</dim>
				</port>
			</output>
		</layer>
		<layer id="299" name="__module.model.layers.0.post_attention_layernorm/aten::pow/Power" type="Power" version="opset1">
			<data auto_broadcast="numpy" />
			<input>
				<port id="0" precision="FP32">
					<dim>-1</dim>
					<dim>-1</dim>
					<dim>4096</dim>
				</port>
				<port id="1" precision="FP32">
					<dim>1</dim>
					<dim>1</dim>
					<dim>1</dim>
				</port>
			</input>
			<output>
				<port id="2" precision="FP32" names="525">
					<dim>-1</dim>
					<dim>-1</dim>
					<dim>4096</dim>
				</port>
			</output>
		</layer>
		<layer id="300" name="Constant_1218540" type="Const" version="opset1">
			<data element_type="i64" shape="1" offset="525754148" size="8" />
			<output>
				<port id="0" precision="I64" names="526">
					<dim>1</dim>
				</port>
			</output>
		</layer>
		<layer id="301" name="__module.model.layers.0.post_attention_layernorm/aten::mean/ReduceMean" type="ReduceMean" version="opset1">
			<data keep_dims="true" />
			<input>
				<port id="0" precision="FP32">
					<dim>-1</dim>
					<dim>-1</dim>
					<dim>4096</dim>
				</port>
				<port id="1" precision="I64">
					<dim>1</dim>
				</port>
			</input>
			<output>
				<port id="2" precision="FP32" names="527,variance.3">
					<dim>-1</dim>
					<dim>-1</dim>
					<dim>1</dim>
				</port>
			</output>
		</layer>
		<layer id="302" name="Constant_1301953" type="Const" version="opset1">
			<data element_type="f32" shape="1, 1, 1" offset="525754156" size="4" />
			<output>
				<port id="0" precision="FP32">
					<dim>1</dim>
					<dim>1</dim>
					<dim>1</dim>
				</port>
			</output>
		</layer>
		<layer id="303" name="__module.model.layers.0.post_attention_layernorm/aten::add/Add" type="Add" version="opset1">
			<data auto_broadcast="numpy" />
			<input>
				<port id="0" precision="FP32">
					<dim>-1</dim>
					<dim>-1</dim>
					<dim>1</dim>
				</port>
				<port id="1" precision="FP32">
					<dim>1</dim>
					<dim>1</dim>
					<dim>1</dim>
				</port>
			</input>
			<output>
				<port id="2" precision="FP32" names="528">
					<dim>-1</dim>
					<dim>-1</dim>
					<dim>1</dim>
				</port>
			</output>
		</layer>
		<layer id="304" name="__module.model.layers.0.post_attention_layernorm/aten::rsqrt/Sqrt" type="Sqrt" version="opset1">
			<input>
				<port id="0" precision="FP32">
					<dim>-1</dim>
					<dim>-1</dim>
					<dim>1</dim>
				</port>
			</input>
			<output>
				<port id="1" precision="FP32">
					<dim>-1</dim>
					<dim>-1</dim>
					<dim>1</dim>
				</port>
			</output>
		</layer>
		<layer id="305" name="__module.model.layers.0.post_attention_layernorm/aten::rsqrt/Divide" type="Divide" version="opset1">
			<data auto_broadcast="numpy" m_pythondiv="true" />
			<input>
				<port id="0" precision="FP32">
					<dim>1</dim>
					<dim>1</dim>
					<dim>1</dim>
				</port>
				<port id="1" precision="FP32">
					<dim>-1</dim>
					<dim>-1</dim>
					<dim>1</dim>
				</port>
			</input>
			<output>
				<port id="2" precision="FP32" names="529">
					<dim>-1</dim>
					<dim>-1</dim>
					<dim>1</dim>
				</port>
			</output>
		</layer>
		<layer id="306" name="__module.model.layers.0.post_attention_layernorm/aten::mul/Multiply" type="Multiply" version="opset1">
			<data auto_broadcast="numpy" />
			<input>
				<port id="0" precision="FP32">
					<dim>-1</dim>
					<dim>-1</dim>
					<dim>4096</dim>
				</port>
				<port id="1" precision="FP32">
					<dim>-1</dim>
					<dim>-1</dim>
					<dim>1</dim>
				</port>
			</input>
			<output>
				<port id="2" precision="FP32" names="530,531,hidden_states.23,hidden_states.25">
					<dim>-1</dim>
					<dim>-1</dim>
					<dim>4096</dim>
				</port>
			</output>
		</layer>
		<layer id="307" name="__module.model.layers.0.post_attention_layernorm/aten::mul/Multiply_1" type="Multiply" version="opset1">
			<data auto_broadcast="numpy" />
			<input>
				<port id="0" precision="FP32">
					<dim>1</dim>
					<dim>1</dim>
					<dim>4096</dim>
				</port>
				<port id="1" precision="FP32">
					<dim>-1</dim>
					<dim>-1</dim>
					<dim>4096</dim>
				</port>
			</input>
			<output>
				<port id="2" precision="FP32" names="532,534">
					<dim>-1</dim>
					<dim>-1</dim>
					<dim>4096</dim>
				</port>
			</output>
		</layer>
		<layer id="308" name="self.model.layers.0.mlp.gate_proj.weight" type="Const" version="opset1">
			<data element_type="u4" shape="14336, 32, 128" offset="547561788" size="29360128" />
			<output>
				<port id="0" precision="U4">
					<dim>14336</dim>
					<dim>32</dim>
					<dim>128</dim>
				</port>
			</output>
		</layer>
		<layer id="309" name="Convert_1356492" type="Convert" version="opset1">
			<data destination_type="f16" />
			<input>
				<port id="0" precision="U4">
					<dim>14336</dim>
					<dim>32</dim>
					<dim>128</dim>
				</port>
			</input>
			<output>
				<port id="1" precision="FP16">
					<dim>14336</dim>
					<dim>32</dim>
					<dim>128</dim>
				</port>
			</output>
		</layer>
		<layer id="310" name="self.model.layers.0.mlp.gate_proj.weight/zero_point" type="Const" version="opset1">
			<data element_type="u4" shape="14336, 32, 1" offset="576921916" size="229376" />
			<output>
				<port id="0" precision="U4">
					<dim>14336</dim>
					<dim>32</dim>
					<dim>1</dim>
				</port>
			</output>
		</layer>
		<layer id="311" name="Convert_1356495" type="Convert" version="opset1">
			<data destination_type="f16" />
			<input>
				<port id="0" precision="U4">
					<dim>14336</dim>
					<dim>32</dim>
					<dim>1</dim>
				</port>
			</input>
			<output>
				<port id="1" precision="FP16">
					<dim>14336</dim>
					<dim>32</dim>
					<dim>1</dim>
				</port>
			</output>
		</layer>
		<layer id="312" name="self.model.layers.0.mlp.gate_proj.weight/zero_point/subtract" type="Subtract" version="opset1">
			<data auto_broadcast="numpy" />
			<input>
				<port id="0" precision="FP16">
					<dim>14336</dim>
					<dim>32</dim>
					<dim>128</dim>
				</port>
				<port id="1" precision="FP16">
					<dim>14336</dim>
					<dim>32</dim>
					<dim>1</dim>
				</port>
			</input>
			<output>
				<port id="2" precision="FP16">
					<dim>14336</dim>
					<dim>32</dim>
					<dim>128</dim>
				</port>
			</output>
		</layer>
		<layer id="313" name="self.model.layers.0.mlp.gate_proj.weight/scale" type="Const" version="opset1">
			<data element_type="f16" shape="14336, 32, 1" offset="577151292" size="917504" />
			<output>
				<port id="0" precision="FP16">
					<dim>14336</dim>
					<dim>32</dim>
					<dim>1</dim>
				</port>
			</output>
		</layer>
		<layer id="314" name="self.model.layers.0.mlp.gate_proj.weight/fq_weights_1" type="Multiply" version="opset1">
			<data auto_broadcast="numpy" />
			<input>
				<port id="0" precision="FP16">
					<dim>14336</dim>
					<dim>32</dim>
					<dim>128</dim>
				</port>
				<port id="1" precision="FP16">
					<dim>14336</dim>
					<dim>32</dim>
					<dim>1</dim>
				</port>
			</input>
			<output>
				<port id="2" precision="FP16">
					<dim>14336</dim>
					<dim>32</dim>
					<dim>128</dim>
				</port>
			</output>
		</layer>
		<layer id="315" name="Constant_1356500" type="Const" version="opset1">
			<data element_type="i64" shape="2" offset="578068796" size="16" />
			<output>
				<port id="0" precision="I64">
					<dim>2</dim>
				</port>
			</output>
		</layer>
		<layer id="316" name="Reshape_1356501" type="Reshape" version="opset1">
			<data special_zero="false" />
			<input>
				<port id="0" precision="FP16">
					<dim>14336</dim>
					<dim>32</dim>
					<dim>128</dim>
				</port>
				<port id="1" precision="I64">
					<dim>2</dim>
				</port>
			</input>
			<output>
				<port id="2" precision="FP16">
					<dim>14336</dim>
					<dim>4096</dim>
				</port>
			</output>
		</layer>
		<layer id="317" name="__module.model.layers.0.mlp.gate_proj/ov_ext::linear/Convert" type="Convert" version="opset1">
			<data destination_type="f32" />
			<rt_info>
				<attribute name="decompression" version="0" />
			</rt_info>
			<input>
				<port id="0" precision="FP16">
					<dim>14336</dim>
					<dim>4096</dim>
				</port>
			</input>
			<output>
				<port id="1" precision="FP32">
					<dim>14336</dim>
					<dim>4096</dim>
				</port>
			</output>
		</layer>
		<layer id="318" name="__module.model.layers.0.mlp.gate_proj/ov_ext::linear/MatMul" type="MatMul" version="opset1">
			<data transpose_a="false" transpose_b="true" />
			<input>
				<port id="0" precision="FP32">
					<dim>-1</dim>
					<dim>-1</dim>
					<dim>4096</dim>
				</port>
				<port id="1" precision="FP32">
					<dim>14336</dim>
					<dim>4096</dim>
				</port>
			</input>
			<output>
				<port id="2" precision="FP32" names="540,input.1">
					<dim>-1</dim>
					<dim>-1</dim>
					<dim>14336</dim>
				</port>
			</output>
		</layer>
		<layer id="319" name="__module.model.layers.0.mlp.act_fn/aten::silu/Swish" type="Swish" version="opset4">
			<input>
				<port id="0" precision="FP32">
					<dim>-1</dim>
					<dim>-1</dim>
					<dim>14336</dim>
				</port>
			</input>
			<output>
				<port id="1" precision="FP32" names="541">
					<dim>-1</dim>
					<dim>-1</dim>
					<dim>14336</dim>
				</port>
			</output>
		</layer>
		<layer id="320" name="self.model.layers.0.mlp.up_proj.weight" type="Const" version="opset1">
			<data element_type="u4" shape="14336, 32, 128" offset="578068812" size="29360128" />
			<output>
				<port id="0" precision="U4">
					<dim>14336</dim>
					<dim>32</dim>
					<dim>128</dim>
				</port>
			</output>
		</layer>
		<layer id="321" name="Convert_1352191" type="Convert" version="opset1">
			<data destination_type="f16" />
			<input>
				<port id="0" precision="U4">
					<dim>14336</dim>
					<dim>32</dim>
					<dim>128</dim>
				</port>
			</input>
			<output>
				<port id="1" precision="FP16">
					<dim>14336</dim>
					<dim>32</dim>
					<dim>128</dim>
				</port>
			</output>
		</layer>
		<layer id="322" name="self.model.layers.0.mlp.up_proj.weight/zero_point" type="Const" version="opset1">
			<data element_type="u4" shape="14336, 32, 1" offset="607428940" size="229376" />
			<output>
				<port id="0" precision="U4">
					<dim>14336</dim>
					<dim>32</dim>
					<dim>1</dim>
				</port>
			</output>
		</layer>
		<layer id="323" name="Convert_1352194" type="Convert" version="opset1">
			<data destination_type="f16" />
			<input>
				<port id="0" precision="U4">
					<dim>14336</dim>
					<dim>32</dim>
					<dim>1</dim>
				</port>
			</input>
			<output>
				<port id="1" precision="FP16">
					<dim>14336</dim>
					<dim>32</dim>
					<dim>1</dim>
				</port>
			</output>
		</layer>
		<layer id="324" name="self.model.layers.0.mlp.up_proj.weight/zero_point/subtract" type="Subtract" version="opset1">
			<data auto_broadcast="numpy" />
			<input>
				<port id="0" precision="FP16">
					<dim>14336</dim>
					<dim>32</dim>
					<dim>128</dim>
				</port>
				<port id="1" precision="FP16">
					<dim>14336</dim>
					<dim>32</dim>
					<dim>1</dim>
				</port>
			</input>
			<output>
				<port id="2" precision="FP16">
					<dim>14336</dim>
					<dim>32</dim>
					<dim>128</dim>
				</port>
			</output>
		</layer>
		<layer id="325" name="self.model.layers.0.mlp.up_proj.weight/scale" type="Const" version="opset1">
			<data element_type="f16" shape="14336, 32, 1" offset="607658316" size="917504" />
			<output>
				<port id="0" precision="FP16">
					<dim>14336</dim>
					<dim>32</dim>
					<dim>1</dim>
				</port>
			</output>
		</layer>
		<layer id="326" name="self.model.layers.0.mlp.up_proj.weight/fq_weights_1" type="Multiply" version="opset1">
			<data auto_broadcast="numpy" />
			<input>
				<port id="0" precision="FP16">
					<dim>14336</dim>
					<dim>32</dim>
					<dim>128</dim>
				</port>
				<port id="1" precision="FP16">
					<dim>14336</dim>
					<dim>32</dim>
					<dim>1</dim>
				</port>
			</input>
			<output>
				<port id="2" precision="FP16">
					<dim>14336</dim>
					<dim>32</dim>
					<dim>128</dim>
				</port>
			</output>
		</layer>
		<layer id="327" name="Constant_1352199" type="Const" version="opset1">
			<data element_type="i64" shape="2" offset="578068796" size="16" />
			<output>
				<port id="0" precision="I64">
					<dim>2</dim>
				</port>
			</output>
		</layer>
		<layer id="328" name="Reshape_1352200" type="Reshape" version="opset1">
			<data special_zero="false" />
			<input>
				<port id="0" precision="FP16">
					<dim>14336</dim>
					<dim>32</dim>
					<dim>128</dim>
				</port>
				<port id="1" precision="I64">
					<dim>2</dim>
				</port>
			</input>
			<output>
				<port id="2" precision="FP16">
					<dim>14336</dim>
					<dim>4096</dim>
				</port>
			</output>
		</layer>
		<layer id="329" name="__module.model.layers.0.mlp.up_proj/ov_ext::linear/Convert" type="Convert" version="opset1">
			<data destination_type="f32" />
			<rt_info>
				<attribute name="decompression" version="0" />
			</rt_info>
			<input>
				<port id="0" precision="FP16">
					<dim>14336</dim>
					<dim>4096</dim>
				</port>
			</input>
			<output>
				<port id="1" precision="FP32">
					<dim>14336</dim>
					<dim>4096</dim>
				</port>
			</output>
		</layer>
		<layer id="330" name="__module.model.layers.0.mlp.up_proj/ov_ext::linear/MatMul" type="MatMul" version="opset1">
			<data transpose_a="false" transpose_b="true" />
			<input>
				<port id="0" precision="FP32">
					<dim>-1</dim>
					<dim>-1</dim>
					<dim>4096</dim>
				</port>
				<port id="1" precision="FP32">
					<dim>14336</dim>
					<dim>4096</dim>
				</port>
			</input>
			<output>
				<port id="2" precision="FP32" names="543">
					<dim>-1</dim>
					<dim>-1</dim>
					<dim>14336</dim>
				</port>
			</output>
		</layer>
		<layer id="331" name="__module.model.layers.0.mlp/aten::mul/Multiply" type="Multiply" version="opset1">
			<data auto_broadcast="numpy" />
			<input>
				<port id="0" precision="FP32">
					<dim>-1</dim>
					<dim>-1</dim>
					<dim>14336</dim>
				</port>
				<port id="1" precision="FP32">
					<dim>-1</dim>
					<dim>-1</dim>
					<dim>14336</dim>
				</port>
			</input>
			<output>
				<port id="2" precision="FP32" names="544">
					<dim>-1</dim>
					<dim>-1</dim>
					<dim>14336</dim>
				</port>
			</output>
		</layer>
		<layer id="332" name="self.model.layers.0.mlp.down_proj.weight" type="Const" version="opset1">
			<data element_type="u4" shape="4096, 112, 128" offset="608575820" size="29360128" />
			<output>
				<port id="0" precision="U4">
					<dim>4096</dim>
					<dim>112</dim>
					<dim>128</dim>
				</port>
			</output>
		</layer>
		<layer id="333" name="Convert_1360793" type="Convert" version="opset1">
			<data destination_type="f16" />
			<input>
				<port id="0" precision="U4">
					<dim>4096</dim>
					<dim>112</dim>
					<dim>128</dim>
				</port>
			</input>
			<output>
				<port id="1" precision="FP16">
					<dim>4096</dim>
					<dim>112</dim>
					<dim>128</dim>
				</port>
			</output>
		</layer>
		<layer id="334" name="self.model.layers.0.mlp.down_proj.weight/zero_point" type="Const" version="opset1">
			<data element_type="u4" shape="4096, 112, 1" offset="637935948" size="229376" />
			<output>
				<port id="0" precision="U4">
					<dim>4096</dim>
					<dim>112</dim>
					<dim>1</dim>
				</port>
			</output>
		</layer>
		<layer id="335" name="Convert_1360796" type="Convert" version="opset1">
			<data destination_type="f16" />
			<input>
				<port id="0" precision="U4">
					<dim>4096</dim>
					<dim>112</dim>
					<dim>1</dim>
				</port>
			</input>
			<output>
				<port id="1" precision="FP16">
					<dim>4096</dim>
					<dim>112</dim>
					<dim>1</dim>
				</port>
			</output>
		</layer>
		<layer id="336" name="self.model.layers.0.mlp.down_proj.weight/zero_point/subtract" type="Subtract" version="opset1">
			<data auto_broadcast="numpy" />
			<input>
				<port id="0" precision="FP16">
					<dim>4096</dim>
					<dim>112</dim>
					<dim>128</dim>
				</port>
				<port id="1" precision="FP16">
					<dim>4096</dim>
					<dim>112</dim>
					<dim>1</dim>
				</port>
			</input>
			<output>
				<port id="2" precision="FP16">
					<dim>4096</dim>
					<dim>112</dim>
					<dim>128</dim>
				</port>
			</output>
		</layer>
		<layer id="337" name="self.model.layers.0.mlp.down_proj.weight/scale" type="Const" version="opset1">
			<data element_type="f16" shape="4096, 112, 1" offset="638165324" size="917504" />
			<output>
				<port id="0" precision="FP16">
					<dim>4096</dim>
					<dim>112</dim>
					<dim>1</dim>
				</port>
			</output>
		</layer>
		<layer id="338" name="self.model.layers.0.mlp.down_proj.weight/fq_weights_1" type="Multiply" version="opset1">
			<data auto_broadcast="numpy" />
			<input>
				<port id="0" precision="FP16">
					<dim>4096</dim>
					<dim>112</dim>
					<dim>128</dim>
				</port>
				<port id="1" precision="FP16">
					<dim>4096</dim>
					<dim>112</dim>
					<dim>1</dim>
				</port>
			</input>
			<output>
				<port id="2" precision="FP16">
					<dim>4096</dim>
					<dim>112</dim>
					<dim>128</dim>
				</port>
			</output>
		</layer>
		<layer id="339" name="Constant_1360801" type="Const" version="opset1">
			<data element_type="i64" shape="2" offset="639082828" size="16" />
			<output>
				<port id="0" precision="I64">
					<dim>2</dim>
				</port>
			</output>
		</layer>
		<layer id="340" name="Reshape_1360802" type="Reshape" version="opset1">
			<data special_zero="false" />
			<input>
				<port id="0" precision="FP16">
					<dim>4096</dim>
					<dim>112</dim>
					<dim>128</dim>
				</port>
				<port id="1" precision="I64">
					<dim>2</dim>
				</port>
			</input>
			<output>
				<port id="2" precision="FP16">
					<dim>4096</dim>
					<dim>14336</dim>
				</port>
			</output>
		</layer>
		<layer id="341" name="__module.model.layers.0.mlp.down_proj/ov_ext::linear/Convert" type="Convert" version="opset1">
			<data destination_type="f32" />
			<rt_info>
				<attribute name="decompression" version="0" />
			</rt_info>
			<input>
				<port id="0" precision="FP16">
					<dim>4096</dim>
					<dim>14336</dim>
				</port>
			</input>
			<output>
				<port id="1" precision="FP32">
					<dim>4096</dim>
					<dim>14336</dim>
				</port>
			</output>
		</layer>
		<layer id="342" name="__module.model.layers.0.mlp.down_proj/ov_ext::linear/MatMul" type="MatMul" version="opset1">
			<data transpose_a="false" transpose_b="true" />
			<input>
				<port id="0" precision="FP32">
					<dim>-1</dim>
					<dim>-1</dim>
					<dim>14336</dim>
				</port>
				<port id="1" precision="FP32">
					<dim>4096</dim>
					<dim>14336</dim>
				</port>
			</input>
			<output>
				<port id="2" precision="FP32" names="546,hidden_states.27">
					<dim>-1</dim>
					<dim>-1</dim>
					<dim>4096</dim>
				</port>
			</output>
		</layer>
		<layer id="343" name="__module.model.layers.0/aten::add/Add_1" type="Add" version="opset1">
			<data auto_broadcast="numpy" />
			<input>
				<port id="0" precision="FP32">
					<dim>-1</dim>
					<dim>-1</dim>
					<dim>4096</dim>
				</port>
				<port id="1" precision="FP32">
					<dim>-1</dim>
					<dim>-1</dim>
					<dim>4096</dim>
				</port>
			</input>
			<output>
				<port id="2" precision="FP32" names="547,549,557,568,hidden_states.29,hidden_states.31">
					<dim>-1</dim>
					<dim>-1</dim>
					<dim>4096</dim>
				</port>
			</output>
		</layer>
		<layer id="344" name="Constant_1301959" type="Const" version="opset1">
			<data element_type="f32" shape="1, 1, 4096" offset="639082844" size="16384" />
			<output>
				<port id="0" precision="FP32">
					<dim>1</dim>
					<dim>1</dim>
					<dim>4096</dim>
				</port>
			</output>
		</layer>
		<layer id="345" name="Constant_1301958" type="Const" version="opset1">
			<data element_type="f32" shape="1, 1, 1" offset="525754140" size="4" />
			<output>
				<port id="0" precision="FP32">
					<dim>1</dim>
					<dim>1</dim>
					<dim>1</dim>
				</port>
			</output>
		</layer>
		<layer id="346" name="Constant_1301956" type="Const" version="opset1">
			<data element_type="f32" shape="1, 1, 1" offset="525754144" size="4" />
			<output>
				<port id="0" precision="FP32">
					<dim>1</dim>
					<dim>1</dim>
					<dim>1</dim>
				</port>
			</output>
		</layer>
		<layer id="347" name="__module.model.layers.1.input_layernorm/aten::pow/Power" type="Power" version="opset1">
			<data auto_broadcast="numpy" />
			<input>
				<port id="0" precision="FP32">
					<dim>-1</dim>
					<dim>-1</dim>
					<dim>4096</dim>
				</port>
				<port id="1" precision="FP32">
					<dim>1</dim>
					<dim>1</dim>
					<dim>1</dim>
				</port>
			</input>
			<output>
				<port id="2" precision="FP32" names="558">
					<dim>-1</dim>
					<dim>-1</dim>
					<dim>4096</dim>
				</port>
			</output>
		</layer>
		<layer id="348" name="Constant_1218614" type="Const" version="opset1">
			<data element_type="i64" shape="1" offset="525754148" size="8" />
			<output>
				<port id="0" precision="I64" names="559">
					<dim>1</dim>
				</port>
			</output>
		</layer>
		<layer id="349" name="__module.model.layers.1.input_layernorm/aten::mean/ReduceMean" type="ReduceMean" version="opset1">
			<data keep_dims="true" />
			<input>
				<port id="0" precision="FP32">
					<dim>-1</dim>
					<dim>-1</dim>
					<dim>4096</dim>
				</port>
				<port id="1" precision="I64">
					<dim>1</dim>
				</port>
			</input>
			<output>
				<port id="2" precision="FP32" names="560,variance.5">
					<dim>-1</dim>
					<dim>-1</dim>
					<dim>1</dim>
				</port>
			</output>
		</layer>
		<layer id="350" name="Constant_1301957" type="Const" version="opset1">
			<data element_type="f32" shape="1, 1, 1" offset="525754156" size="4" />
			<output>
				<port id="0" precision="FP32">
					<dim>1</dim>
					<dim>1</dim>
					<dim>1</dim>
				</port>
			</output>
		</layer>
		<layer id="351" name="__module.model.layers.1.input_layernorm/aten::add/Add" type="Add" version="opset1">
			<data auto_broadcast="numpy" />
			<input>
				<port id="0" precision="FP32">
					<dim>-1</dim>
					<dim>-1</dim>
					<dim>1</dim>
				</port>
				<port id="1" precision="FP32">
					<dim>1</dim>
					<dim>1</dim>
					<dim>1</dim>
				</port>
			</input>
			<output>
				<port id="2" precision="FP32" names="561">
					<dim>-1</dim>
					<dim>-1</dim>
					<dim>1</dim>
				</port>
			</output>
		</layer>
		<layer id="352" name="__module.model.layers.1.input_layernorm/aten::rsqrt/Sqrt" type="Sqrt" version="opset1">
			<input>
				<port id="0" precision="FP32">
					<dim>-1</dim>
					<dim>-1</dim>
					<dim>1</dim>
				</port>
			</input>
			<output>
				<port id="1" precision="FP32">
					<dim>-1</dim>
					<dim>-1</dim>
					<dim>1</dim>
				</port>
			</output>
		</layer>
		<layer id="353" name="__module.model.layers.1.input_layernorm/aten::rsqrt/Divide" type="Divide" version="opset1">
			<data auto_broadcast="numpy" m_pythondiv="true" />
			<input>
				<port id="0" precision="FP32">
					<dim>1</dim>
					<dim>1</dim>
					<dim>1</dim>
				</port>
				<port id="1" precision="FP32">
					<dim>-1</dim>
					<dim>-1</dim>
					<dim>1</dim>
				</port>
			</input>
			<output>
				<port id="2" precision="FP32" names="562">
					<dim>-1</dim>
					<dim>-1</dim>
					<dim>1</dim>
				</port>
			</output>
		</layer>
		<layer id="354" name="__module.model.layers.1.input_layernorm/aten::mul/Multiply" type="Multiply" version="opset1">
			<data auto_broadcast="numpy" />
			<input>
				<port id="0" precision="FP32">
					<dim>-1</dim>
					<dim>-1</dim>
					<dim>4096</dim>
				</port>
				<port id="1" precision="FP32">
					<dim>-1</dim>
					<dim>-1</dim>
					<dim>1</dim>
				</port>
			</input>
			<output>
				<port id="2" precision="FP32" names="563,564,hidden_states.33,hidden_states.35">
					<dim>-1</dim>
					<dim>-1</dim>
					<dim>4096</dim>
				</port>
			</output>
		</layer>
		<layer id="355" name="__module.model.layers.1.input_layernorm/aten::mul/Multiply_1" type="Multiply" version="opset1">
			<data auto_broadcast="numpy" />
			<input>
				<port id="0" precision="FP32">
					<dim>1</dim>
					<dim>1</dim>
					<dim>4096</dim>
				</port>
				<port id="1" precision="FP32">
					<dim>-1</dim>
					<dim>-1</dim>
					<dim>4096</dim>
				</port>
			</input>
			<output>
				<port id="2" precision="FP32" names="565,567,hidden_states.37">
					<dim>-1</dim>
					<dim>-1</dim>
					<dim>4096</dim>
				</port>
			</output>
		</layer>
		<layer id="356" name="self.model.layers.1.self_attn.q_proj.weight" type="Const" version="opset1">
			<data element_type="u4" shape="4096, 32, 128" offset="639099228" size="8388608" />
			<output>
				<port id="0" precision="U4">
					<dim>4096</dim>
					<dim>32</dim>
					<dim>128</dim>
				</port>
			</output>
		</layer>
		<layer id="357" name="Convert_1773689" type="Convert" version="opset1">
			<data destination_type="f16" />
			<input>
				<port id="0" precision="U4">
					<dim>4096</dim>
					<dim>32</dim>
					<dim>128</dim>
				</port>
			</input>
			<output>
				<port id="1" precision="FP16">
					<dim>4096</dim>
					<dim>32</dim>
					<dim>128</dim>
				</port>
			</output>
		</layer>
		<layer id="358" name="self.model.layers.1.self_attn.q_proj.weight/zero_point" type="Const" version="opset1">
			<data element_type="u4" shape="4096, 32, 1" offset="647487836" size="65536" />
			<output>
				<port id="0" precision="U4">
					<dim>4096</dim>
					<dim>32</dim>
					<dim>1</dim>
				</port>
			</output>
		</layer>
		<layer id="359" name="Convert_1773692" type="Convert" version="opset1">
			<data destination_type="f16" />
			<input>
				<port id="0" precision="U4">
					<dim>4096</dim>
					<dim>32</dim>
					<dim>1</dim>
				</port>
			</input>
			<output>
				<port id="1" precision="FP16">
					<dim>4096</dim>
					<dim>32</dim>
					<dim>1</dim>
				</port>
			</output>
		</layer>
		<layer id="360" name="self.model.layers.1.self_attn.q_proj.weight/zero_point/subtract" type="Subtract" version="opset1">
			<data auto_broadcast="numpy" />
			<input>
				<port id="0" precision="FP16">
					<dim>4096</dim>
					<dim>32</dim>
					<dim>128</dim>
				</port>
				<port id="1" precision="FP16">
					<dim>4096</dim>
					<dim>32</dim>
					<dim>1</dim>
				</port>
			</input>
			<output>
				<port id="2" precision="FP16">
					<dim>4096</dim>
					<dim>32</dim>
					<dim>128</dim>
				</port>
			</output>
		</layer>
		<layer id="361" name="self.model.layers.1.self_attn.q_proj.weight/scale" type="Const" version="opset1">
			<data element_type="f16" shape="4096, 32, 1" offset="647553372" size="262144" />
			<output>
				<port id="0" precision="FP16">
					<dim>4096</dim>
					<dim>32</dim>
					<dim>1</dim>
				</port>
			</output>
		</layer>
		<layer id="362" name="self.model.layers.1.self_attn.q_proj.weight/fq_weights_1" type="Multiply" version="opset1">
			<data auto_broadcast="numpy" />
			<input>
				<port id="0" precision="FP16">
					<dim>4096</dim>
					<dim>32</dim>
					<dim>128</dim>
				</port>
				<port id="1" precision="FP16">
					<dim>4096</dim>
					<dim>32</dim>
					<dim>1</dim>
				</port>
			</input>
			<output>
				<port id="2" precision="FP16">
					<dim>4096</dim>
					<dim>32</dim>
					<dim>128</dim>
				</port>
			</output>
		</layer>
		<layer id="363" name="Constant_1773697" type="Const" version="opset1">
			<data element_type="i64" shape="2" offset="534470448" size="16" />
			<output>
				<port id="0" precision="I64">
					<dim>2</dim>
				</port>
			</output>
		</layer>
		<layer id="364" name="Reshape_1773698" type="Reshape" version="opset1">
			<data special_zero="false" />
			<input>
				<port id="0" precision="FP16">
					<dim>4096</dim>
					<dim>32</dim>
					<dim>128</dim>
				</port>
				<port id="1" precision="I64">
					<dim>2</dim>
				</port>
			</input>
			<output>
				<port id="2" precision="FP16">
					<dim>4096</dim>
					<dim>4096</dim>
				</port>
			</output>
		</layer>
		<layer id="365" name="__module.model.layers.1.self_attn.q_proj/ov_ext::linear/Convert" type="Convert" version="opset1">
			<data destination_type="f32" />
			<rt_info>
				<attribute name="decompression" version="0" />
			</rt_info>
			<input>
				<port id="0" precision="FP16">
					<dim>4096</dim>
					<dim>4096</dim>
				</port>
			</input>
			<output>
				<port id="1" precision="FP32">
					<dim>4096</dim>
					<dim>4096</dim>
				</port>
			</output>
		</layer>
		<layer id="366" name="__module.model.layers.1.self_attn.q_proj/ov_ext::linear/MatMul" type="MatMul" version="opset1">
			<data transpose_a="false" transpose_b="true" />
			<input>
				<port id="0" precision="FP32">
					<dim>-1</dim>
					<dim>-1</dim>
					<dim>4096</dim>
				</port>
				<port id="1" precision="FP32">
					<dim>4096</dim>
					<dim>4096</dim>
				</port>
			</input>
			<output>
				<port id="2" precision="FP32" names="576">
					<dim>-1</dim>
					<dim>-1</dim>
					<dim>4096</dim>
				</port>
			</output>
		</layer>
		<layer id="367" name="Constant_1311462" type="Const" version="opset1">
			<data element_type="i64" shape="4" offset="534470464" size="32" />
			<output>
				<port id="0" precision="I64">
					<dim>4</dim>
				</port>
			</output>
		</layer>
		<layer id="368" name="__module.model.layers.1.self_attn/aten::view/Reshape" type="Reshape" version="opset1">
			<data special_zero="true" />
			<input>
				<port id="0" precision="FP32">
					<dim>-1</dim>
					<dim>-1</dim>
					<dim>4096</dim>
				</port>
				<port id="1" precision="I64">
					<dim>4</dim>
				</port>
			</input>
			<output>
				<port id="2" precision="FP32" names="578">
					<dim>-1</dim>
					<dim>-1</dim>
					<dim>32</dim>
					<dim>128</dim>
				</port>
			</output>
		</layer>
		<layer id="369" name="__module.model.layers.1.self_attn/aten::transpose/Constant" type="Const" version="opset1">
			<data element_type="i32" shape="4" offset="534470496" size="16" />
			<output>
				<port id="0" precision="I32">
					<dim>4</dim>
				</port>
			</output>
		</layer>
		<layer id="370" name="__module.model.layers.1.self_attn/aten::transpose/Transpose" type="Transpose" version="opset1">
			<input>
				<port id="0" precision="FP32">
					<dim>-1</dim>
					<dim>-1</dim>
					<dim>32</dim>
					<dim>128</dim>
				</port>
				<port id="1" precision="I32">
					<dim>4</dim>
				</port>
			</input>
			<output>
				<port id="2" precision="FP32" names="579,q.3">
					<dim>-1</dim>
					<dim>32</dim>
					<dim>-1</dim>
					<dim>128</dim>
				</port>
			</output>
		</layer>
		<layer id="371" name="__module.model.layers.1.self_attn/aten::mul/Multiply" type="Multiply" version="opset1">
			<data auto_broadcast="numpy" />
			<input>
				<port id="0" precision="FP32">
					<dim>-1</dim>
					<dim>32</dim>
					<dim>-1</dim>
					<dim>128</dim>
				</port>
				<port id="1" precision="FP32">
					<dim>-1</dim>
					<dim>1</dim>
					<dim>-1</dim>
					<dim>128</dim>
				</port>
			</input>
			<output>
				<port id="2" precision="FP32" names="592">
					<dim>-1</dim>
					<dim>32</dim>
					<dim>-1</dim>
					<dim>128</dim>
				</port>
			</output>
		</layer>
		<layer id="372" name="Constant_1218916" type="Const" version="opset1">
			<data element_type="i64" shape="1" offset="534470788" size="8" />
			<output>
				<port id="0" precision="I64">
					<dim>1</dim>
				</port>
			</output>
		</layer>
		<layer id="373" name="Constant_1218918" type="Const" version="opset1">
			<data element_type="i64" shape="1" offset="534470796" size="8" />
			<output>
				<port id="0" precision="I64">
					<dim>1</dim>
				</port>
			</output>
		</layer>
		<layer id="374" name="Constant_1218920" type="Const" version="opset1">
			<data element_type="i64" shape="1" offset="534470768" size="8" />
			<output>
				<port id="0" precision="I64">
					<dim>1</dim>
				</port>
			</output>
		</layer>
		<layer id="375" name="Constant_1218872" type="Const" version="opset1">
			<data element_type="i64" shape="1" offset="534470804" size="8" />
			<output>
				<port id="0" precision="I64">
					<dim>1</dim>
				</port>
			</output>
		</layer>
		<layer id="376" name="__module.model.layers.1.self_attn/aten::slice/Slice" type="Slice" version="opset8">
			<input>
				<port id="0" precision="FP32">
					<dim>-1</dim>
					<dim>32</dim>
					<dim>-1</dim>
					<dim>128</dim>
				</port>
				<port id="1" precision="I64">
					<dim>1</dim>
				</port>
				<port id="2" precision="I64">
					<dim>1</dim>
				</port>
				<port id="3" precision="I64">
					<dim>1</dim>
				</port>
				<port id="4" precision="I64">
					<dim>1</dim>
				</port>
			</input>
			<output>
				<port id="5" precision="FP32" names="602,x2.5">
					<dim>-1</dim>
					<dim>32</dim>
					<dim>-1</dim>
					<dim>64</dim>
				</port>
			</output>
		</layer>
		<layer id="377" name="__module.model.layers.1.self_attn/aten::neg/Constant" type="Const" version="opset1">
			<data element_type="i32" shape="" offset="534470812" size="4" />
			<output>
				<port id="0" precision="I32" />
			</output>
		</layer>
		<layer id="378" name="__module.model.layers.1.self_attn/aten::neg/ConvertLike" type="Convert" version="opset1">
			<data destination_type="f32" />
			<input>
				<port id="0" precision="I32" />
			</input>
			<output>
				<port id="1" precision="FP32" />
			</output>
		</layer>
		<layer id="379" name="__module.model.layers.1.self_attn/aten::neg/Multiply" type="Multiply" version="opset1">
			<data auto_broadcast="numpy" />
			<input>
				<port id="0" precision="FP32">
					<dim>-1</dim>
					<dim>32</dim>
					<dim>-1</dim>
					<dim>64</dim>
				</port>
				<port id="1" precision="FP32" />
			</input>
			<output>
				<port id="2" precision="FP32" names="603">
					<dim>-1</dim>
					<dim>32</dim>
					<dim>-1</dim>
					<dim>64</dim>
				</port>
			</output>
		</layer>
		<layer id="380" name="Constant_1218813" type="Const" version="opset1">
			<data element_type="i64" shape="1" offset="4" size="8" />
			<output>
				<port id="0" precision="I64">
					<dim>1</dim>
				</port>
			</output>
		</layer>
		<layer id="381" name="Constant_1218857" type="Const" version="opset1">
			<data element_type="i64" shape="1" offset="534470788" size="8" />
			<output>
				<port id="0" precision="I64">
					<dim>1</dim>
				</port>
			</output>
		</layer>
		<layer id="382" name="Constant_1218859" type="Const" version="opset1">
			<data element_type="i64" shape="1" offset="534470768" size="8" />
			<output>
				<port id="0" precision="I64">
					<dim>1</dim>
				</port>
			</output>
		</layer>
		<layer id="383" name="Constant_1218811" type="Const" version="opset1">
			<data element_type="i64" shape="1" offset="534470804" size="8" />
			<output>
				<port id="0" precision="I64">
					<dim>1</dim>
				</port>
			</output>
		</layer>
		<layer id="384" name="__module.model.layers.1.self_attn/aten::slice/Slice_1" type="Slice" version="opset8">
			<input>
				<port id="0" precision="FP32">
					<dim>-1</dim>
					<dim>32</dim>
					<dim>-1</dim>
					<dim>128</dim>
				</port>
				<port id="1" precision="I64">
					<dim>1</dim>
				</port>
				<port id="2" precision="I64">
					<dim>1</dim>
				</port>
				<port id="3" precision="I64">
					<dim>1</dim>
				</port>
				<port id="4" precision="I64">
					<dim>1</dim>
				</port>
			</input>
			<output>
				<port id="5" precision="FP32" names="597,x1.5">
					<dim>-1</dim>
					<dim>32</dim>
					<dim>-1</dim>
					<dim>64</dim>
				</port>
			</output>
		</layer>
		<layer id="385" name="__module.model.layers.1.self_attn/aten::cat/Concat" type="Concat" version="opset1">
			<data axis="-1" />
			<input>
				<port id="0" precision="FP32">
					<dim>-1</dim>
					<dim>32</dim>
					<dim>-1</dim>
					<dim>64</dim>
				</port>
				<port id="1" precision="FP32">
					<dim>-1</dim>
					<dim>32</dim>
					<dim>-1</dim>
					<dim>64</dim>
				</port>
			</input>
			<output>
				<port id="2" precision="FP32" names="605">
					<dim>-1</dim>
					<dim>32</dim>
					<dim>-1</dim>
					<dim>128</dim>
				</port>
			</output>
		</layer>
		<layer id="386" name="__module.model.layers.1.self_attn/aten::mul/Multiply_1" type="Multiply" version="opset1">
			<data auto_broadcast="numpy" />
			<input>
				<port id="0" precision="FP32">
					<dim>-1</dim>
					<dim>32</dim>
					<dim>-1</dim>
					<dim>128</dim>
				</port>
				<port id="1" precision="FP32">
					<dim>-1</dim>
					<dim>1</dim>
					<dim>-1</dim>
					<dim>128</dim>
				</port>
			</input>
			<output>
				<port id="2" precision="FP32" names="606">
					<dim>-1</dim>
					<dim>32</dim>
					<dim>-1</dim>
					<dim>128</dim>
				</port>
			</output>
		</layer>
		<layer id="387" name="__module.model.layers.1.self_attn/aten::add/Add" type="Add" version="opset1">
			<data auto_broadcast="numpy" />
			<input>
				<port id="0" precision="FP32">
					<dim>-1</dim>
					<dim>32</dim>
					<dim>-1</dim>
					<dim>128</dim>
				</port>
				<port id="1" precision="FP32">
					<dim>-1</dim>
					<dim>32</dim>
					<dim>-1</dim>
					<dim>128</dim>
				</port>
			</input>
			<output>
				<port id="2" precision="FP32" names="607,query.5">
					<dim>-1</dim>
					<dim>32</dim>
					<dim>-1</dim>
					<dim>128</dim>
				</port>
			</output>
		</layer>
		<layer id="388" name="Constant_1314189" type="Const" version="opset1">
			<data element_type="f32" shape="" offset="0" size="4" />
			<output>
				<port id="0" precision="FP32" />
			</output>
		</layer>
		<layer id="389" name="Constant_1314182" type="Const" version="opset1">
			<data element_type="i64" shape="1" offset="12" size="8" />
			<output>
				<port id="0" precision="I64">
					<dim>1</dim>
				</port>
			</output>
		</layer>
		<layer id="390" name="Constant_1314184" type="Const" version="opset1">
			<data element_type="i64" shape="1" offset="4" size="8" />
			<output>
				<port id="0" precision="I64">
					<dim>1</dim>
				</port>
			</output>
		</layer>
		<layer id="391" name="Constant_1314186" type="Const" version="opset1">
			<data element_type="i64" shape="1" offset="20" size="8" />
			<output>
				<port id="0" precision="I64">
					<dim>1</dim>
				</port>
			</output>
		</layer>
		<layer id="392" name="Concat_1314187" type="Concat" version="opset1">
			<data axis="0" />
			<input>
				<port id="0" precision="I64">
					<dim>1</dim>
				</port>
				<port id="1" precision="I64">
					<dim>1</dim>
				</port>
				<port id="2" precision="I64">
					<dim>1</dim>
				</port>
				<port id="3" precision="I64">
					<dim>1</dim>
				</port>
			</input>
			<output>
…
		<edge from-layer="5403" from-port="0" to-layer="5404" to-port="1" />
		<edge from-layer="5404" from-port="2" to-layer="5405" to-port="0" />
		<edge from-layer="5405" from-port="1" to-layer="5406" to-port="1" />
		<edge from-layer="5406" from-port="2" to-layer="5408" to-port="0" />
		<edge from-layer="5407" from-port="0" to-layer="5408" to-port="1" />
		<edge from-layer="5408" from-port="2" to-layer="5410" to-port="0" />
		<edge from-layer="5409" from-port="0" to-layer="5410" to-port="1" />
		<edge from-layer="5410" from-port="2" to-layer="5411" to-port="1" />
		<edge from-layer="5411" from-port="2" to-layer="5412" to-port="0" />
		<edge from-layer="5411" from-port="2" to-layer="5923" to-port="0" />
		<edge from-layer="5412" from-port="2" to-layer="5413" to-port="0" />
		<edge from-layer="5413" from-port="2" to-layer="5415" to-port="0" />
		<edge from-layer="5414" from-port="0" to-layer="5415" to-port="1" />
		<edge from-layer="5415" from-port="2" to-layer="5416" to-port="2" />
		<edge from-layer="5416" from-port="5" to-layer="5418" to-port="0" />
		<edge from-layer="5417" from-port="0" to-layer="5418" to-port="1" />
		<edge from-layer="5418" from-port="2" to-layer="5419" to-port="0" />
		<edge from-layer="5419" from-port="2" to-layer="5430" to-port="0" />
		<edge from-layer="5420" from-port="0" to-layer="5421" to-port="0" />
		<edge from-layer="5421" from-port="1" to-layer="5424" to-port="0" />
		<edge from-layer="5422" from-port="0" to-layer="5423" to-port="0" />
		<edge from-layer="5423" from-port="1" to-layer="5424" to-port="1" />
		<edge from-layer="5424" from-port="2" to-layer="5426" to-port="0" />
		<edge from-layer="5425" from-port="0" to-layer="5426" to-port="1" />
		<edge from-layer="5426" from-port="2" to-layer="5428" to-port="0" />
		<edge from-layer="5427" from-port="0" to-layer="5428" to-port="1" />
		<edge from-layer="5428" from-port="2" to-layer="5429" to-port="0" />
		<edge from-layer="5429" from-port="1" to-layer="5430" to-port="1" />
		<edge from-layer="5430" from-port="2" to-layer="5431" to-port="1" />
		<edge from-layer="5431" from-port="2" to-layer="5479" to-port="0" />
		<edge from-layer="5431" from-port="2" to-layer="5435" to-port="0" />
		<edge from-layer="5431" from-port="2" to-layer="5442" to-port="0" />
		<edge from-layer="5432" from-port="0" to-layer="5443" to-port="0" />
		<edge from-layer="5433" from-port="0" to-layer="5441" to-port="0" />
		<edge from-layer="5434" from-port="0" to-layer="5435" to-port="1" />
		<edge from-layer="5435" from-port="2" to-layer="5437" to-port="0" />
		<edge from-layer="5436" from-port="0" to-layer="5437" to-port="1" />
		<edge from-layer="5437" from-port="2" to-layer="5439" to-port="0" />
		<edge from-layer="5438" from-port="0" to-layer="5439" to-port="1" />
		<edge from-layer="5439" from-port="2" to-layer="5440" to-port="0" />
		<edge from-layer="5440" from-port="1" to-layer="5441" to-port="1" />
		<edge from-layer="5441" from-port="2" to-layer="5442" to-port="1" />
		<edge from-layer="5442" from-port="2" to-layer="5443" to-port="1" />
		<edge from-layer="5443" from-port="2" to-layer="5466" to-port="0" />
		<edge from-layer="5443" from-port="2" to-layer="5454" to-port="0" />
		<edge from-layer="5444" from-port="0" to-layer="5445" to-port="0" />
		<edge from-layer="5445" from-port="1" to-layer="5448" to-port="0" />
		<edge from-layer="5446" from-port="0" to-layer="5447" to-port="0" />
		<edge from-layer="5447" from-port="1" to-layer="5448" to-port="1" />
		<edge from-layer="5448" from-port="2" to-layer="5450" to-port="0" />
		<edge from-layer="5449" from-port="0" to-layer="5450" to-port="1" />
		<edge from-layer="5450" from-port="2" to-layer="5452" to-port="0" />
		<edge from-layer="5451" from-port="0" to-layer="5452" to-port="1" />
		<edge from-layer="5452" from-port="2" to-layer="5453" to-port="0" />
		<edge from-layer="5453" from-port="1" to-layer="5454" to-port="1" />
		<edge from-layer="5454" from-port="2" to-layer="5455" to-port="0" />
		<edge from-layer="5455" from-port="1" to-layer="5467" to-port="0" />
		<edge from-layer="5456" from-port="0" to-layer="5457" to-port="0" />
		<edge from-layer="5457" from-port="1" to-layer="5460" to-port="0" />
		<edge from-layer="5458" from-port="0" to-layer="5459" to-port="0" />
		<edge from-layer="5459" from-port="1" to-layer="5460" to-port="1" />
		<edge from-layer="5460" from-port="2" to-layer="5462" to-port="0" />
		<edge from-layer="5461" from-port="0" to-layer="5462" to-port="1" />
		<edge from-layer="5462" from-port="2" to-layer="5464" to-port="0" />
		<edge from-layer="5463" from-port="0" to-layer="5464" to-port="1" />
		<edge from-layer="5464" from-port="2" to-layer="5465" to-port="0" />
		<edge from-layer="5465" from-port="1" to-layer="5466" to-port="1" />
		<edge from-layer="5466" from-port="2" to-layer="5467" to-port="1" />
		<edge from-layer="5467" from-port="2" to-layer="5478" to-port="0" />
		<edge from-layer="5468" from-port="0" to-layer="5469" to-port="0" />
		<edge from-layer="5469" from-port="1" to-layer="5472" to-port="0" />
		<edge from-layer="5470" from-port="0" to-layer="5471" to-port="0" />
		<edge from-layer="5471" from-port="1" to-layer="5472" to-port="1" />
		<edge from-layer="5472" from-port="2" to-layer="5474" to-port="0" />
		<edge from-layer="5473" from-port="0" to-layer="5474" to-port="1" />
		<edge from-layer="5474" from-port="2" to-layer="5476" to-port="0" />
		<edge from-layer="5475" from-port="0" to-layer="5476" to-port="1" />
		<edge from-layer="5476" from-port="2" to-layer="5477" to-port="0" />
		<edge from-layer="5477" from-port="1" to-layer="5478" to-port="1" />
		<edge from-layer="5478" from-port="2" to-layer="5479" to-port="1" />
		<edge from-layer="5479" from-port="2" to-layer="5614" to-port="0" />
		<edge from-layer="5479" from-port="2" to-layer="5483" to-port="0" />
		<edge from-layer="5479" from-port="2" to-layer="5490" to-port="0" />
		<edge from-layer="5480" from-port="0" to-layer="5491" to-port="0" />
		<edge from-layer="5481" from-port="0" to-layer="5489" to-port="0" />
		<edge from-layer="5482" from-port="0" to-layer="5483" to-port="1" />
		<edge from-layer="5483" from-port="2" to-layer="5485" to-port="0" />
		<edge from-layer="5484" from-port="0" to-layer="5485" to-port="1" />
		<edge from-layer="5485" from-port="2" to-layer="5487" to-port="0" />
		<edge from-layer="5486" from-port="0" to-layer="5487" to-port="1" />
		<edge from-layer="5487" from-port="2" to-layer="5488" to-port="0" />
		<edge from-layer="5488" from-port="1" to-layer="5489" to-port="1" />
		<edge from-layer="5489" from-port="2" to-layer="5490" to-port="1" />
		<edge from-layer="5490" from-port="2" to-layer="5491" to-port="1" />
		<edge from-layer="5491" from-port="2" to-layer="5589" to-port="0" />
		<edge from-layer="5491" from-port="2" to-layer="5502" to-port="0" />
		<edge from-layer="5491" from-port="2" to-layer="5543" to-port="0" />
		<edge from-layer="5492" from-port="0" to-layer="5493" to-port="0" />
		<edge from-layer="5493" from-port="1" to-layer="5496" to-port="0" />
		<edge from-layer="5494" from-port="0" to-layer="5495" to-port="0" />
		<edge from-layer="5495" from-port="1" to-layer="5496" to-port="1" />
		<edge from-layer="5496" from-port="2" to-layer="5498" to-port="0" />
		<edge from-layer="5497" from-port="0" to-layer="5498" to-port="1" />
		<edge from-layer="5498" from-port="2" to-layer="5500" to-port="0" />
		<edge from-layer="5499" from-port="0" to-layer="5500" to-port="1" />
		<edge from-layer="5500" from-port="2" to-layer="5501" to-port="0" />
		<edge from-layer="5501" from-port="1" to-layer="5502" to-port="1" />
		<edge from-layer="5502" from-port="2" to-layer="5504" to-port="0" />
		<edge from-layer="5503" from-port="0" to-layer="5504" to-port="1" />
		<edge from-layer="5504" from-port="2" to-layer="5506" to-port="0" />
		<edge from-layer="5505" from-port="0" to-layer="5506" to-port="1" />
		<edge from-layer="5506" from-port="2" to-layer="5507" to-port="0" />
		<edge from-layer="5506" from-port="2" to-layer="5512" to-port="0" />
		<edge from-layer="5506" from-port="2" to-layer="5520" to-port="0" />
		<edge from-layer="5507" from-port="2" to-layer="5523" to-port="0" />
		<edge from-layer="5508" from-port="0" to-layer="5512" to-port="1" />
		<edge from-layer="5509" from-port="0" to-layer="5512" to-port="2" />
		<edge from-layer="5510" from-port="0" to-layer="5512" to-port="3" />
		<edge from-layer="5511" from-port="0" to-layer="5512" to-port="4" />
		<edge from-layer="5512" from-port="5" to-layer="5515" to-port="0" />
		<edge from-layer="5513" from-port="0" to-layer="5514" to-port="0" />
		<edge from-layer="5514" from-port="1" to-layer="5515" to-port="1" />
		<edge from-layer="5515" from-port="2" to-layer="5521" to-port="0" />
		<edge from-layer="5516" from-port="0" to-layer="5520" to-port="1" />
		<edge from-layer="5517" from-port="0" to-layer="5520" to-port="2" />
		<edge from-layer="5518" from-port="0" to-layer="5520" to-port="3" />
		<edge from-layer="5519" from-port="0" to-layer="5520" to-port="4" />
		<edge from-layer="5520" from-port="5" to-layer="5521" to-port="1" />
		<edge from-layer="5521" from-port="2" to-layer="5522" to-port="0" />
		<edge from-layer="5522" from-port="2" to-layer="5523" to-port="1" />
		<edge from-layer="5523" from-port="2" to-layer="5599" to-port="0" />
		<edge from-layer="5524" from-port="0" to-layer="5529" to-port="0" />
		<edge from-layer="5525" from-port="0" to-layer="5528" to-port="1" />
		<edge from-layer="5526" from-port="0" to-layer="5528" to-port="2" />
		<edge from-layer="5527" from-port="0" to-layer="5528" to-port="3" />
		<edge from-layer="5528" from-port="4" to-layer="5529" to-port="1" />
		<edge from-layer="5529" from-port="2" to-layer="5530" to-port="0" />
		<edge from-layer="5530" from-port="1" to-layer="5532" to-port="0" />
		<edge from-layer="5531" from-port="0" to-layer="5532" to-port="2" />
		<edge from-layer="5532" from-port="3" to-layer="5565" to-port="0" />
		<edge from-layer="5533" from-port="0" to-layer="5534" to-port="0" />
		<edge from-layer="5534" from-port="1" to-layer="5537" to-port="0" />
		<edge from-layer="5535" from-port="0" to-layer="5536" to-port="0" />
		<edge from-layer="5536" from-port="1" to-layer="5537" to-port="1" />
		<edge from-layer="5537" from-port="2" to-layer="5539" to-port="0" />
		<edge from-layer="5538" from-port="0" to-layer="5539" to-port="1" />
		<edge from-layer="5539" from-port="2" to-layer="5541" to-port="0" />
		<edge from-layer="5540" from-port="0" to-layer="5541" to-port="1" />
		<edge from-layer="5541" from-port="2" to-layer="5542" to-port="0" />
		<edge from-layer="5542" from-port="1" to-layer="5543" to-port="1" />
		<edge from-layer="5543" from-port="2" to-layer="5545" to-port="0" />
		<edge from-layer="5544" from-port="0" to-layer="5545" to-port="1" />
		<edge from-layer="5545" from-port="2" to-layer="5547" to-port="0" />
		<edge from-layer="5546" from-port="0" to-layer="5547" to-port="1" />
		<edge from-layer="5547" from-port="2" to-layer="5548" to-port="0" />
		<edge from-layer="5547" from-port="2" to-layer="5553" to-port="0" />
		<edge from-layer="5547" from-port="2" to-layer="5561" to-port="0" />
		<edge from-layer="5548" from-port="2" to-layer="5564" to-port="0" />
		<edge from-layer="5549" from-port="0" to-layer="5553" to-port="1" />
		<edge from-layer="5550" from-port="0" to-layer="5553" to-port="2" />
		<edge from-layer="5551" from-port="0" to-layer="5553" to-port="3" />
		<edge from-layer="5552" from-port="0" to-layer="5553" to-port="4" />
		<edge from-layer="5553" from-port="5" to-layer="5556" to-port="0" />
		<edge from-layer="5554" from-port="0" to-layer="5555" to-port="0" />
		<edge from-layer="5555" from-port="1" to-layer="5556" to-port="1" />
		<edge from-layer="5556" from-port="2" to-layer="5562" to-port="0" />
		<edge from-layer="5557" from-port="0" to-layer="5561" to-port="1" />
		<edge from-layer="5558" from-port="0" to-layer="5561" to-port="2" />
		<edge from-layer="5559" from-port="0" to-layer="5561" to-port="3" />
		<edge from-layer="5560" from-port="0" to-layer="5561" to-port="4" />
		<edge from-layer="5561" from-port="5" to-layer="5562" to-port="1" />
		<edge from-layer="5562" from-port="2" to-layer="5563" to-port="0" />
		<edge from-layer="5563" from-port="2" to-layer="5564" to-port="1" />
		<edge from-layer="5564" from-port="2" to-layer="5565" to-port="1" />
		<edge from-layer="5565" from-port="2" to-layer="5922" to-port="0" />
		<edge from-layer="5565" from-port="2" to-layer="5566" to-port="0" />
		<edge from-layer="5566" from-port="2" to-layer="5567" to-port="0" />
		<edge from-layer="5567" from-port="2" to-layer="5569" to-port="0" />
		<edge from-layer="5568" from-port="0" to-layer="5569" to-port="1" />
		<edge from-layer="5569" from-port="2" to-layer="5599" to-port="1" />
		<edge from-layer="5570" from-port="0" to-layer="5575" to-port="0" />
		<edge from-layer="5571" from-port="0" to-layer="5574" to-port="1" />
		<edge from-layer="5572" from-port="0" to-layer="5574" to-port="2" />
		<edge from-layer="5573" from-port="0" to-layer="5574" to-port="3" />
		<edge from-layer="5574" from-port="4" to-layer="5575" to-port="1" />
		<edge from-layer="5575" from-port="2" to-layer="5576" to-port="0" />
		<edge from-layer="5576" from-port="1" to-layer="5578" to-port="0" />
		<edge from-layer="5577" from-port="0" to-layer="5578" to-port="2" />
		<edge from-layer="5578" from-port="3" to-layer="5594" to-port="0" />
		<edge from-layer="5579" from-port="0" to-layer="5580" to-port="0" />
		<edge from-layer="5580" from-port="1" to-layer="5583" to-port="0" />
		<edge from-layer="5581" from-port="0" to-layer="5582" to-port="0" />
		<edge from-layer="5582" from-port="1" to-layer="5583" to-port="1" />
		<edge from-layer="5583" from-port="2" to-layer="5585" to-port="0" />
		<edge from-layer="5584" from-port="0" to-layer="5585" to-port="1" />
		<edge from-layer="5585" from-port="2" to-layer="5587" to-port="0" />
		<edge from-layer="5586" from-port="0" to-layer="5587" to-port="1" />
		<edge from-layer="5587" from-port="2" to-layer="5588" to-port="0" />
		<edge from-layer="5588" from-port="1" to-layer="5589" to-port="1" />
		<edge from-layer="5589" from-port="2" to-layer="5591" to-port="0" />
		<edge from-layer="5590" from-port="0" to-layer="5591" to-port="1" />
		<edge from-layer="5591" from-port="2" to-layer="5593" to-port="0" />
		<edge from-layer="5592" from-port="0" to-layer="5593" to-port="1" />
		<edge from-layer="5593" from-port="2" to-layer="5594" to-port="1" />
		<edge from-layer="5594" from-port="2" to-layer="5921" to-port="0" />
		<edge from-layer="5594" from-port="2" to-layer="5595" to-port="0" />
		<edge from-layer="5595" from-port="2" to-layer="5596" to-port="0" />
		<edge from-layer="5596" from-port="2" to-layer="5598" to-port="0" />
		<edge from-layer="5597" from-port="0" to-layer="5598" to-port="1" />
		<edge from-layer="5598" from-port="2" to-layer="5599" to-port="2" />
		<edge from-layer="5599" from-port="5" to-layer="5601" to-port="0" />
		<edge from-layer="5600" from-port="0" to-layer="5601" to-port="1" />
		<edge from-layer="5601" from-port="2" to-layer="5602" to-port="0" />
		<edge from-layer="5602" from-port="2" to-layer="5613" to-port="0" />
		<edge from-layer="5603" from-port="0" to-layer="5604" to-port="0" />
		<edge from-layer="5604" from-port="1" to-layer="5607" to-port="0" />
		<edge from-layer="5605" from-port="0" to-layer="5606" to-port="0" />
		<edge from-layer="5606" from-port="1" to-layer="5607" to-port="1" />
		<edge from-layer="5607" from-port="2" to-layer="5609" to-port="0" />
		<edge from-layer="5608" from-port="0" to-layer="5609" to-port="1" />
		<edge from-layer="5609" from-port="2" to-layer="5611" to-port="0" />
		<edge from-layer="5610" from-port="0" to-layer="5611" to-port="1" />
		<edge from-layer="5611" from-port="2" to-layer="5612" to-port="0" />
		<edge from-layer="5612" from-port="1" to-layer="5613" to-port="1" />
		<edge from-layer="5613" from-port="2" to-layer="5614" to-port="1" />
		<edge from-layer="5614" from-port="2" to-layer="5662" to-port="0" />
		<edge from-layer="5614" from-port="2" to-layer="5618" to-port="0" />
		<edge from-layer="5614" from-port="2" to-layer="5625" to-port="0" />
		<edge from-layer="5615" from-port="0" to-layer="5626" to-port="0" />
		<edge from-layer="5616" from-port="0" to-layer="5624" to-port="0" />
		<edge from-layer="5617" from-port="0" to-layer="5618" to-port="1" />
		<edge from-layer="5618" from-port="2" to-layer="5620" to-port="0" />
		<edge from-layer="5619" from-port="0" to-layer="5620" to-port="1" />
		<edge from-layer="5620" from-port="2" to-layer="5622" to-port="0" />
		<edge from-layer="5621" from-port="0" to-layer="5622" to-port="1" />
		<edge from-layer="5622" from-port="2" to-layer="5623" to-port="0" />
		<edge from-layer="5623" from-port="1" to-layer="5624" to-port="1" />
		<edge from-layer="5624" from-port="2" to-layer="5625" to-port="1" />
		<edge from-layer="5625" from-port="2" to-layer="5626" to-port="1" />
		<edge from-layer="5626" from-port="2" to-layer="5637" to-port="0" />
		<edge from-layer="5626" from-port="2" to-layer="5649" to-port="0" />
		<edge from-layer="5627" from-port="0" to-layer="5628" to-port="0" />
		<edge from-layer="5628" from-port="1" to-layer="5631" to-port="0" />
		<edge from-layer="5629" from-port="0" to-layer="5630" to-port="0" />
		<edge from-layer="5630" from-port="1" to-layer="5631" to-port="1" />
		<edge from-layer="5631" from-port="2" to-layer="5633" to-port="0" />
		<edge from-layer="5632" from-port="0" to-layer="5633" to-port="1" />
		<edge from-layer="5633" from-port="2" to-layer="5635" to-port="0" />
		<edge from-layer="5634" from-port="0" to-layer="5635" to-port="1" />
		<edge from-layer="5635" from-port="2" to-layer="5636" to-port="0" />
		<edge from-layer="5636" from-port="1" to-layer="5637" to-port="1" />
		<edge from-layer="5637" from-port="2" to-layer="5638" to-port="0" />
		<edge from-layer="5638" from-port="1" to-layer="5650" to-port="0" />
		<edge from-layer="5639" from-port="0" to-layer="5640" to-port="0" />
		<edge from-layer="5640" from-port="1" to-layer="5643" to-port="0" />
		<edge from-layer="5641" from-port="0" to-layer="5642" to-port="0" />
		<edge from-layer="5642" from-port="1" to-layer="5643" to-port="1" />
		<edge from-layer="5643" from-port="2" to-layer="5645" to-port="0" />
		<edge from-layer="5644" from-port="0" to-layer="5645" to-port="1" />
		<edge from-layer="5645" from-port="2" to-layer="5647" to-port="0" />
		<edge from-layer="5646" from-port="0" to-layer="5647" to-port="1" />
		<edge from-layer="5647" from-port="2" to-layer="5648" to-port="0" />
		<edge from-layer="5648" from-port="1" to-layer="5649" to-port="1" />
		<edge from-layer="5649" from-port="2" to-layer="5650" to-port="1" />
		<edge from-layer="5650" from-port="2" to-layer="5661" to-port="0" />
		<edge from-layer="5651" from-port="0" to-layer="5652" to-port="0" />
		<edge from-layer="5652" from-port="1" to-layer="5655" to-port="0" />
		<edge from-layer="5653" from-port="0" to-layer="5654" to-port="0" />
		<edge from-layer="5654" from-port="1" to-layer="5655" to-port="1" />
		<edge from-layer="5655" from-port="2" to-layer="5657" to-port="0" />
		<edge from-layer="5656" from-port="0" to-layer="5657" to-port="1" />
		<edge from-layer="5657" from-port="2" to-layer="5659" to-port="0" />
		<edge from-layer="5658" from-port="0" to-layer="5659" to-port="1" />
		<edge from-layer="5659" from-port="2" to-layer="5660" to-port="0" />
		<edge from-layer="5660" from-port="1" to-layer="5661" to-port="1" />
		<edge from-layer="5661" from-port="2" to-layer="5662" to-port="1" />
		<edge from-layer="5662" from-port="2" to-layer="5797" to-port="0" />
		<edge from-layer="5662" from-port="2" to-layer="5673" to-port="0" />
		<edge from-layer="5662" from-port="2" to-layer="5666" to-port="0" />
		<edge from-layer="5663" from-port="0" to-layer="5674" to-port="0" />
		<edge from-layer="5664" from-port="0" to-layer="5672" to-port="0" />
		<edge from-layer="5665" from-port="0" to-layer="5666" to-port="1" />
		<edge from-layer="5666" from-port="2" to-layer="5668" to-port="0" />
		<edge from-layer="5667" from-port="0" to-layer="5668" to-port="1" />
		<edge from-layer="5668" from-port="2" to-layer="5670" to-port="0" />
		<edge from-layer="5669" from-port="0" to-layer="5670" to-port="1" />
		<edge from-layer="5670" from-port="2" to-layer="5671" to-port="0" />
		<edge from-layer="5671" from-port="1" to-layer="5672" to-port="1" />
		<edge from-layer="5672" from-port="2" to-layer="5673" to-port="1" />
		<edge from-layer="5673" from-port="2" to-layer="5674" to-port="1" />
		<edge from-layer="5674" from-port="2" to-layer="5685" to-port="0" />
		<edge from-layer="5674" from-port="2" to-layer="5726" to-port="0" />
		<edge from-layer="5674" from-port="2" to-layer="5772" to-port="0" />
		<edge from-layer="5675" from-port="0" to-layer="5676" to-port="0" />
		<edge from-layer="5676" from-port="1" to-layer="5679" to-port="0" />
		<edge from-layer="5677" from-port="0" to-layer="5678" to-port="0" />
		<edge from-layer="5678" from-port="1" to-layer="5679" to-port="1" />
		<edge from-layer="5679" from-port="2" to-layer="5681" to-port="0" />
		<edge from-layer="5680" from-port="0" to-layer="5681" to-port="1" />
		<edge from-layer="5681" from-port="2" to-layer="5683" to-port="0" />
		<edge from-layer="5682" from-port="0" to-layer="5683" to-port="1" />
		<edge from-layer="5683" from-port="2" to-layer="5684" to-port="0" />
		<edge from-layer="5684" from-port="1" to-layer="5685" to-port="1" />
		<edge from-layer="5685" from-port="2" to-layer="5687" to-port="0" />
		<edge from-layer="5686" from-port="0" to-layer="5687" to-port="1" />
		<edge from-layer="5687" from-port="2" to-layer="5689" to-port="0" />
		<edge from-layer="5688" from-port="0" to-layer="5689" to-port="1" />
		<edge from-layer="5689" from-port="2" to-layer="5690" to-port="0" />
		<edge from-layer="5689" from-port="2" to-layer="5695" to-port="0" />
		<edge from-layer="5689" from-port="2" to-layer="5703" to-port="0" />
		<edge from-layer="5690" from-port="2" to-layer="5706" to-port="0" />
		<edge from-layer="5691" from-port="0" to-layer="5695" to-port="1" />
		<edge from-layer="5692" from-port="0" to-layer="5695" to-port="2" />
		<edge from-layer="5693" from-port="0" to-layer="5695" to-port="3" />
		<edge from-layer="5694" from-port="0" to-layer="5695" to-port="4" />
		<edge from-layer="5695" from-port="5" to-layer="5698" to-port="0" />
		<edge from-layer="5696" from-port="0" to-layer="5697" to-port="0" />
		<edge from-layer="5697" from-port="1" to-layer="5698" to-port="1" />
		<edge from-layer="5698" from-port="2" to-layer="5704" to-port="0" />
		<edge from-layer="5699" from-port="0" to-layer="5703" to-port="1" />
		<edge from-layer="5700" from-port="0" to-layer="5703" to-port="2" />
		<edge from-layer="5701" from-port="0" to-layer="5703" to-port="3" />
		<edge from-layer="5702" from-port="0" to-layer="5703" to-port="4" />
		<edge from-layer="5703" from-port="5" to-layer="5704" to-port="1" />
		<edge from-layer="5704" from-port="2" to-layer="5705" to-port="0" />
		<edge from-layer="5705" from-port="2" to-layer="5706" to-port="1" />
		<edge from-layer="5706" from-port="2" to-layer="5782" to-port="0" />
		<edge from-layer="5707" from-port="0" to-layer="5712" to-port="0" />
		<edge from-layer="5708" from-port="0" to-layer="5711" to-port="1" />
		<edge from-layer="5709" from-port="0" to-layer="5711" to-port="2" />
		<edge from-layer="5710" from-port="0" to-layer="5711" to-port="3" />
		<edge from-layer="5711" from-port="4" to-layer="5712" to-port="1" />
		<edge from-layer="5712" from-port="2" to-layer="5713" to-port="0" />
		<edge from-layer="5713" from-port="1" to-layer="5715" to-port="0" />
		<edge from-layer="5714" from-port="0" to-layer="5715" to-port="2" />
		<edge from-layer="5715" from-port="3" to-layer="5748" to-port="0" />
		<edge from-layer="5716" from-port="0" to-layer="5717" to-port="0" />
		<edge from-layer="5717" from-port="1" to-layer="5720" to-port="0" />
		<edge from-layer="5718" from-port="0" to-layer="5719" to-port="0" />
		<edge from-layer="5719" from-port="1" to-layer="5720" to-port="1" />
		<edge from-layer="5720" from-port="2" to-layer="5722" to-port="0" />
		<edge from-layer="5721" from-port="0" to-layer="5722" to-port="1" />
		<edge from-layer="5722" from-port="2" to-layer="5724" to-port="0" />
		<edge from-layer="5723" from-port="0" to-layer="5724" to-port="1" />
		<edge from-layer="5724" from-port="2" to-layer="5725" to-port="0" />
		<edge from-layer="5725" from-port="1" to-layer="5726" to-port="1" />
		<edge from-layer="5726" from-port="2" to-layer="5728" to-port="0" />
		<edge from-layer="5727" from-port="0" to-layer="5728" to-port="1" />
		<edge from-layer="5728" from-port="2" to-layer="5730" to-port="0" />
		<edge from-layer="5729" from-port="0" to-layer="5730" to-port="1" />
		<edge from-layer="5730" from-port="2" to-layer="5731" to-port="0" />
		<edge from-layer="5730" from-port="2" to-layer="5736" to-port="0" />
		<edge from-layer="5730" from-port="2" to-layer="5744" to-port="0" />
		<edge from-layer="5731" from-port="2" to-layer="5747" to-port="0" />
		<edge from-layer="5732" from-port="0" to-layer="5736" to-port="1" />
		<edge from-layer="5733" from-port="0" to-layer="5736" to-port="2" />
		<edge from-layer="5734" from-port="0" to-layer="5736" to-port="3" />
		<edge from-layer="5735" from-port="0" to-layer="5736" to-port="4" />
		<edge from-layer="5736" from-port="5" to-layer="5739" to-port="0" />
		<edge from-layer="5737" from-port="0" to-layer="5738" to-port="0" />
		<edge from-layer="5738" from-port="1" to-layer="5739" to-port="1" />
		<edge from-layer="5739" from-port="2" to-layer="5745" to-port="0" />
		<edge from-layer="5740" from-port="0" to-layer="5744" to-port="1" />
		<edge from-layer="5741" from-port="0" to-layer="5744" to-port="2" />
		<edge from-layer="5742" from-port="0" to-layer="5744" to-port="3" />
		<edge from-layer="5743" from-port="0" to-layer="5744" to-port="4" />
		<edge from-layer="5744" from-port="5" to-layer="5745" to-port="1" />
		<edge from-layer="5745" from-port="2" to-layer="5746" to-port="0" />
		<edge from-layer="5746" from-port="2" to-layer="5747" to-port="1" />
		<edge from-layer="5747" from-port="2" to-layer="5748" to-port="1" />
		<edge from-layer="5748" from-port="2" to-layer="5749" to-port="0" />
		<edge from-layer="5748" from-port="2" to-layer="5918" to-port="0" />
		<edge from-layer="5749" from-port="2" to-layer="5750" to-port="0" />
		<edge from-layer="5750" from-port="2" to-layer="5752" to-port="0" />
		<edge from-layer="5751" from-port="0" to-layer="5752" to-port="1" />
		<edge from-layer="5752" from-port="2" to-layer="5782" to-port="1" />
		<edge from-layer="5753" from-port="0" to-layer="5758" to-port="0" />
		<edge from-layer="5754" from-port="0" to-layer="5757" to-port="1" />
		<edge from-layer="5755" from-port="0" to-layer="5757" to-port="2" />
		<edge from-layer="5756" from-port="0" to-layer="5757" to-port="3" />
		<edge from-layer="5757" from-port="4" to-layer="5758" to-port="1" />
		<edge from-layer="5758" from-port="2" to-layer="5759" to-port="0" />
		<edge from-layer="5759" from-port="1" to-layer="5761" to-port="0" />
		<edge from-layer="5760" from-port="0" to-layer="5761" to-port="2" />
		<edge from-layer="5761" from-port="3" to-layer="5777" to-port="0" />
		<edge from-layer="5762" from-port="0" to-layer="5763" to-port="0" />
		<edge from-layer="5763" from-port="1" to-layer="5766" to-port="0" />
		<edge from-layer="5764" from-port="0" to-layer="5765" to-port="0" />
		<edge from-layer="5765" from-port="1" to-layer="5766" to-port="1" />
		<edge from-layer="5766" from-port="2" to-layer="5768" to-port="0" />
		<edge from-layer="5767" from-port="0" to-layer="5768" to-port="1" />
		<edge from-layer="5768" from-port="2" to-layer="5770" to-port="0" />
		<edge from-layer="5769" from-port="0" to-layer="5770" to-port="1" />
		<edge from-layer="5770" from-port="2" to-layer="5771" to-port="0" />
		<edge from-layer="5771" from-port="1" to-layer="5772" to-port="1" />
		<edge from-layer="5772" from-port="2" to-layer="5774" to-port="0" />
		<edge from-layer="5773" from-port="0" to-layer="5774" to-port="1" />
		<edge from-layer="5774" from-port="2" to-layer="5776" to-port="0" />
		<edge from-layer="5775" from-port="0" to-layer="5776" to-port="1" />
		<edge from-layer="5776" from-port="2" to-layer="5777" to-port="1" />
		<edge from-layer="5777" from-port="2" to-layer="5778" to-port="0" />
		<edge from-layer="5777" from-port="2" to-layer="5917" to-port="0" />
		<edge from-layer="5778" from-port="2" to-layer="5779" to-port="0" />
		<edge from-layer="5779" from-port="2" to-layer="5781" to-port="0" />
		<edge from-layer="5780" from-port="0" to-layer="5781" to-port="1" />
		<edge from-layer="5781" from-port="2" to-layer="5782" to-port="2" />
		<edge from-layer="5782" from-port="5" to-layer="5784" to-port="0" />
		<edge from-layer="5783" from-port="0" to-layer="5784" to-port="1" />
		<edge from-layer="5784" from-port="2" to-layer="5785" to-port="0" />
		<edge from-layer="5785" from-port="2" to-layer="5796" to-port="0" />
		<edge from-layer="5786" from-port="0" to-layer="5787" to-port="0" />
		<edge from-layer="5787" from-port="1" to-layer="5790" to-port="0" />
		<edge from-layer="5788" from-port="0" to-layer="5789" to-port="0" />
		<edge from-layer="5789" from-port="1" to-layer="5790" to-port="1" />
		<edge from-layer="5790" from-port="2" to-layer="5792" to-port="0" />
		<edge from-layer="5791" from-port="0" to-layer="5792" to-port="1" />
		<edge from-layer="5792" from-port="2" to-layer="5794" to-port="0" />
		<edge from-layer="5793" from-port="0" to-layer="5794" to-port="1" />
		<edge from-layer="5794" from-port="2" to-layer="5795" to-port="0" />
		<edge from-layer="5795" from-port="1" to-layer="5796" to-port="1" />
		<edge from-layer="5796" from-port="2" to-layer="5797" to-port="1" />
		<edge from-layer="5797" from-port="2" to-layer="5808" to-port="0" />
		<edge from-layer="5797" from-port="2" to-layer="5845" to-port="0" />
		<edge from-layer="5797" from-port="2" to-layer="5801" to-port="0" />
		<edge from-layer="5798" from-port="0" to-layer="5809" to-port="0" />
		<edge from-layer="5799" from-port="0" to-layer="5807" to-port="0" />
		<edge from-layer="5800" from-port="0" to-layer="5801" to-port="1" />
		<edge from-layer="5801" from-port="2" to-layer="5803" to-port="0" />
		<edge from-layer="5802" from-port="0" to-layer="5803" to-port="1" />
		<edge from-layer="5803" from-port="2" to-layer="5805" to-port="0" />
		<edge from-layer="5804" from-port="0" to-layer="5805" to-port="1" />
		<edge from-layer="5805" from-port="2" to-layer="5806" to-port="0" />
		<edge from-layer="5806" from-port="1" to-layer="5807" to-port="1" />
		<edge from-layer="5807" from-port="2" to-layer="5808" to-port="1" />
		<edge from-layer="5808" from-port="2" to-layer="5809" to-port="1" />
		<edge from-layer="5809" from-port="2" to-layer="5832" to-port="0" />
		<edge from-layer="5809" from-port="2" to-layer="5820" to-port="0" />
		<edge from-layer="5810" from-port="0" to-layer="5811" to-port="0" />
		<edge from-layer="5811" from-port="1" to-layer="5814" to-port="0" />
		<edge from-layer="5812" from-port="0" to-layer="5813" to-port="0" />
		<edge from-layer="5813" from-port="1" to-layer="5814" to-port="1" />
		<edge from-layer="5814" from-port="2" to-layer="5816" to-port="0" />
		<edge from-layer="5815" from-port="0" to-layer="5816" to-port="1" />
		<edge from-layer="5816" from-port="2" to-layer="5818" to-port="0" />
		<edge from-layer="5817" from-port="0" to-layer="5818" to-port="1" />
		<edge from-layer="5818" from-port="2" to-layer="5819" to-port="0" />
		<edge from-layer="5819" from-port="1" to-layer="5820" to-port="1" />
		<edge from-layer="5820" from-port="2" to-layer="5821" to-port="0" />
		<edge from-layer="5821" from-port="1" to-layer="5833" to-port="0" />
		<edge from-layer="5822" from-port="0" to-layer="5823" to-port="0" />
		<edge from-layer="5823" from-port="1" to-layer="5826" to-port="0" />
		<edge from-layer="5824" from-port="0" to-layer="5825" to-port="0" />
		<edge from-layer="5825" from-port="1" to-layer="5826" to-port="1" />
		<edge from-layer="5826" from-port="2" to-layer="5828" to-port="0" />
		<edge from-layer="5827" from-port="0" to-layer="5828" to-port="1" />
		<edge from-layer="5828" from-port="2" to-layer="5830" to-port="0" />
		<edge from-layer="5829" from-port="0" to-layer="5830" to-port="1" />
		<edge from-layer="5830" from-port="2" to-layer="5831" to-port="0" />
		<edge from-layer="5831" from-port="1" to-layer="5832" to-port="1" />
		<edge from-layer="5832" from-port="2" to-layer="5833" to-port="1" />
		<edge from-layer="5833" from-port="2" to-layer="5844" to-port="0" />
		<edge from-layer="5834" from-port="0" to-layer="5835" to-port="0" />
		<edge from-layer="5835" from-port="1" to-layer="5838" to-port="0" />
		<edge from-layer="5836" from-port="0" to-layer="5837" to-port="0" />
		<edge from-layer="5837" from-port="1" to-layer="5838" to-port="1" />
		<edge from-layer="5838" from-port="2" to-layer="5840" to-port="0" />
		<edge from-layer="5839" from-port="0" to-layer="5840" to-port="1" />
		<edge from-layer="5840" from-port="2" to-layer="5842" to-port="0" />
		<edge from-layer="5841" from-port="0" to-layer="5842" to-port="1" />
		<edge from-layer="5842" from-port="2" to-layer="5843" to-port="0" />
		<edge from-layer="5843" from-port="1" to-layer="5844" to-port="1" />
		<edge from-layer="5844" from-port="2" to-layer="5845" to-port="1" />
		<edge from-layer="5845" from-port="2" to-layer="5848" to-port="0" />
		<edge from-layer="5845" from-port="2" to-layer="6023" to-port="0" />
		<edge from-layer="5845" from-port="2" to-layer="5855" to-port="0" />
		<edge from-layer="5846" from-port="0" to-layer="5854" to-port="0" />
		<edge from-layer="5847" from-port="0" to-layer="5848" to-port="1" />
		<edge from-layer="5848" from-port="2" to-layer="5850" to-port="0" />
		<edge from-layer="5849" from-port="0" to-layer="5850" to-port="1" />
		<edge from-layer="5850" from-port="2" to-layer="5852" to-port="0" />
		<edge from-layer="5851" from-port="0" to-layer="5852" to-port="1" />
		<edge from-layer="5852" from-port="2" to-layer="5853" to-port="0" />
		<edge from-layer="5853" from-port="1" to-layer="5854" to-port="1" />
		<edge from-layer="5854" from-port="2" to-layer="5855" to-port="1" />
		<edge from-layer="5855" from-port="2" to-layer="5856" to-port="1" />
		<edge from-layer="5856" from-port="2" to-layer="5978" to-port="0" />
		<edge from-layer="5856" from-port="2" to-layer="5867" to-port="0" />
		<edge from-layer="5856" from-port="2" to-layer="5893" to-port="0" />
		<edge from-layer="5857" from-port="0" to-layer="5858" to-port="0" />
		<edge from-layer="5858" from-port="1" to-layer="5861" to-port="0" />
		<edge from-layer="5859" from-port="0" to-layer="5860" to-port="0" />
		<edge from-layer="5860" from-port="1" to-layer="5861" to-port="1" />
		<edge from-layer="5861" from-port="2" to-layer="5863" to-port="0" />
		<edge from-layer="5862" from-port="0" to-layer="5863" to-port="1" />
		<edge from-layer="5863" from-port="2" to-layer="5865" to-port="0" />
		<edge from-layer="5864" from-port="0" to-layer="5865" to-port="1" />
		<edge from-layer="5865" from-port="2" to-layer="5866" to-port="0" />
		<edge from-layer="5866" from-port="1" to-layer="5867" to-port="1" />
		<edge from-layer="5867" from-port="2" to-layer="5869" to-port="0" />
		<edge from-layer="5868" from-port="0" to-layer="5869" to-port="1" />
		<edge from-layer="5869" from-port="2" to-layer="5871" to-port="0" />
		<edge from-layer="5870" from-port="0" to-layer="5871" to-port="1" />
		<edge from-layer="5871" from-port="2" to-layer="5872" to-port="1" />
		<edge from-layer="5872" from-port="2" to-layer="5873" to-port="0" />
		<edge from-layer="5872" from-port="2" to-layer="6004" to-port="0" />
		<edge from-layer="5874" from-port="0" to-layer="5879" to-port="0" />
		<edge from-layer="5875" from-port="0" to-layer="5878" to-port="1" />
		<edge from-layer="5876" from-port="0" to-layer="5878" to-port="2" />
		<edge from-layer="5877" from-port="0" to-layer="5878" to-port="3" />
		<edge from-layer="5878" from-port="4" to-layer="5879" to-port="1" />
		<edge from-layer="5879" from-port="2" to-layer="5880" to-port="0" />
		<edge from-layer="5880" from-port="1" to-layer="5882" to-port="0" />
		<edge from-layer="5881" from-port="0" to-layer="5882" to-port="2" />
		<edge from-layer="5882" from-port="3" to-layer="5915" to-port="0" />
		<edge from-layer="5883" from-port="0" to-layer="5884" to-port="0" />
		<edge from-layer="5884" from-port="1" to-layer="5887" to-port="0" />
		<edge from-layer="5885" from-port="0" to-layer="5886" to-port="0" />
		<edge from-layer="5886" from-port="1" to-layer="5887" to-port="1" />
		<edge from-layer="5887" from-port="2" to-layer="5889" to-port="0" />
		<edge from-layer="5888" from-port="0" to-layer="5889" to-port="1" />
		<edge from-layer="5889" from-port="2" to-layer="5891" to-port="0" />
		<edge from-layer="5890" from-port="0" to-layer="5891" to-port="1" />
		<edge from-layer="5891" from-port="2" to-layer="5892" to-port="0" />
		<edge from-layer="5892" from-port="1" to-layer="5893" to-port="1" />
		<edge from-layer="5893" from-port="2" to-layer="5895" to-port="0" />
		<edge from-layer="5894" from-port="0" to-layer="5895" to-port="1" />
		<edge from-layer="5895" from-port="2" to-layer="5897" to-port="0" />
		<edge from-layer="5896" from-port="0" to-layer="5897" to-port="1" />
		<edge from-layer="5897" from-port="2" to-layer="5898" to-port="0" />
		<edge from-layer="5897" from-port="2" to-layer="5903" to-port="0" />
		<edge from-layer="5897" from-port="2" to-layer="5911" to-port="0" />
		<edge from-layer="5898" from-port="2" to-layer="5914" to-port="0" />
		<edge from-layer="5899" from-port="0" to-layer="5903" to-port="1" />
		<edge from-layer="5900" from-port="0" to-layer="5903" to-port="2" />
		<edge from-layer="5901" from-port="0" to-layer="5903" to-port="3" />
		<edge from-layer="5902" from-port="0" to-layer="5903" to-port="4" />
		<edge from-layer="5903" from-port="5" to-layer="5906" to-port="0" />
		<edge from-layer="5904" from-port="0" to-layer="5905" to-port="0" />
		<edge from-layer="5905" from-port="1" to-layer="5906" to-port="1" />
		<edge from-layer="5906" from-port="2" to-layer="5912" to-port="0" />
		<edge from-layer="5907" from-port="0" to-layer="5911" to-port="1" />
		<edge from-layer="5908" from-port="0" to-layer="5911" to-port="2" />
		<edge from-layer="5909" from-port="0" to-layer="5911" to-port="3" />
		<edge from-layer="5910" from-port="0" to-layer="5911" to-port="4" />
		<edge from-layer="5911" from-port="5" to-layer="5912" to-port="1" />
		<edge from-layer="5912" from-port="2" to-layer="5913" to-port="0" />
		<edge from-layer="5913" from-port="2" to-layer="5914" to-port="1" />
		<edge from-layer="5914" from-port="2" to-layer="5915" to-port="1" />
		<edge from-layer="5915" from-port="2" to-layer="6000" to-port="0" />
		<edge from-layer="5915" from-port="2" to-layer="5916" to-port="0" />
		<edge from-layer="5967" from-port="0" to-layer="6082" to-port="0" />
		<edge from-layer="5968" from-port="0" to-layer="5969" to-port="0" />
		<edge from-layer="5969" from-port="1" to-layer="5972" to-port="0" />
		<edge from-layer="5970" from-port="0" to-layer="5971" to-port="0" />
		<edge from-layer="5971" from-port="1" to-layer="5972" to-port="1" />
		<edge from-layer="5972" from-port="2" to-layer="5974" to-port="0" />
		<edge from-layer="5973" from-port="0" to-layer="5974" to-port="1" />
		<edge from-layer="5974" from-port="2" to-layer="5976" to-port="0" />
		<edge from-layer="5975" from-port="0" to-layer="5976" to-port="1" />
		<edge from-layer="5976" from-port="2" to-layer="5977" to-port="0" />
		<edge from-layer="5977" from-port="1" to-layer="5978" to-port="1" />
		<edge from-layer="5978" from-port="2" to-layer="5980" to-port="0" />
		<edge from-layer="5979" from-port="0" to-layer="5980" to-port="1" />
		<edge from-layer="5980" from-port="2" to-layer="5982" to-port="0" />
		<edge from-layer="5981" from-port="0" to-layer="5982" to-port="1" />
		<edge from-layer="5982" from-port="2" to-layer="5996" to-port="0" />
		<edge from-layer="5982" from-port="2" to-layer="5983" to-port="0" />
		<edge from-layer="5982" from-port="2" to-layer="5988" to-port="0" />
		<edge from-layer="5983" from-port="2" to-layer="5999" to-port="0" />
		<edge from-layer="5984" from-port="0" to-layer="5988" to-port="1" />
		<edge from-layer="5985" from-port="0" to-layer="5988" to-port="2" />
		<edge from-layer="5986" from-port="0" to-layer="5988" to-port="3" />
		<edge from-layer="5987" from-port="0" to-layer="5988" to-port="4" />
		<edge from-layer="5988" from-port="5" to-layer="5991" to-port="0" />
		<edge from-layer="5989" from-port="0" to-layer="5990" to-port="0" />
		<edge from-layer="5990" from-port="1" to-layer="5991" to-port="1" />
		<edge from-layer="5991" from-port="2" to-layer="5997" to-port="0" />
		<edge from-layer="5992" from-port="0" to-layer="5996" to-port="1" />
		<edge from-layer="5993" from-port="0" to-layer="5996" to-port="2" />
		<edge from-layer="5994" from-port="0" to-layer="5996" to-port="3" />
		<edge from-layer="5995" from-port="0" to-layer="5996" to-port="4" />
		<edge from-layer="5996" from-port="5" to-layer="5997" to-port="1" />
		<edge from-layer="5997" from-port="2" to-layer="5998" to-port="0" />
		<edge from-layer="5998" from-port="2" to-layer="5999" to-port="1" />
		<edge from-layer="5999" from-port="2" to-layer="6008" to-port="0" />
		<edge from-layer="6000" from-port="2" to-layer="6001" to-port="0" />
		<edge from-layer="6001" from-port="2" to-layer="6003" to-port="0" />
		<edge from-layer="6002" from-port="0" to-layer="6003" to-port="1" />
		<edge from-layer="6003" from-port="2" to-layer="6008" to-port="1" />
		<edge from-layer="6004" from-port="2" to-layer="6005" to-port="0" />
		<edge from-layer="6005" from-port="2" to-layer="6007" to-port="0" />
		<edge from-layer="6006" from-port="0" to-layer="6007" to-port="1" />
		<edge from-layer="6007" from-port="2" to-layer="6008" to-port="2" />
		<edge from-layer="6008" from-port="5" to-layer="6010" to-port="0" />
		<edge from-layer="6009" from-port="0" to-layer="6010" to-port="1" />
		<edge from-layer="6010" from-port="2" to-layer="6011" to-port="0" />
		<edge from-layer="6011" from-port="2" to-layer="6022" to-port="0" />
		<edge from-layer="6012" from-port="0" to-layer="6013" to-port="0" />
		<edge from-layer="6013" from-port="1" to-layer="6016" to-port="0" />
		<edge from-layer="6014" from-port="0" to-layer="6015" to-port="0" />
		<edge from-layer="6015" from-port="1" to-layer="6016" to-port="1" />
		<edge from-layer="6016" from-port="2" to-layer="6018" to-port="0" />
		<edge from-layer="6017" from-port="0" to-layer="6018" to-port="1" />
		<edge from-layer="6018" from-port="2" to-layer="6020" to-port="0" />
		<edge from-layer="6019" from-port="0" to-layer="6020" to-port="1" />
		<edge from-layer="6020" from-port="2" to-layer="6021" to-port="0" />
		<edge from-layer="6021" from-port="1" to-layer="6022" to-port="1" />
		<edge from-layer="6022" from-port="2" to-layer="6023" to-port="1" />
		<edge from-layer="6023" from-port="2" to-layer="6027" to-port="0" />
		<edge from-layer="6023" from-port="2" to-layer="6071" to-port="0" />
		<edge from-layer="6023" from-port="2" to-layer="6034" to-port="0" />
		<edge from-layer="6024" from-port="0" to-layer="6035" to-port="0" />
		<edge from-layer="6025" from-port="0" to-layer="6033" to-port="0" />
		<edge from-layer="6026" from-port="0" to-layer="6027" to-port="1" />
		<edge from-layer="6027" from-port="2" to-layer="6029" to-port="0" />
		<edge from-layer="6028" from-port="0" to-layer="6029" to-port="1" />
		<edge from-layer="6029" from-port="2" to-layer="6031" to-port="0" />
		<edge from-layer="6030" from-port="0" to-layer="6031" to-port="1" />
		<edge from-layer="6031" from-port="2" to-layer="6032" to-port="0" />
		<edge from-layer="6032" from-port="1" to-layer="6033" to-port="1" />
		<edge from-layer="6033" from-port="2" to-layer="6034" to-port="1" />
		<edge from-layer="6034" from-port="2" to-layer="6035" to-port="1" />
		<edge from-layer="6035" from-port="2" to-layer="6058" to-port="0" />
		<edge from-layer="6035" from-port="2" to-layer="6046" to-port="0" />
		<edge from-layer="6036" from-port="0" to-layer="6037" to-port="0" />
		<edge from-layer="6037" from-port="1" to-layer="6040" to-port="0" />
		<edge from-layer="6038" from-port="0" to-layer="6039" to-port="0" />
		<edge from-layer="6039" from-port="1" to-layer="6040" to-port="1" />
		<edge from-layer="6040" from-port="2" to-layer="6042" to-port="0" />
		<edge from-layer="6041" from-port="0" to-layer="6042" to-port="1" />
		<edge from-layer="6042" from-port="2" to-layer="6044" to-port="0" />
		<edge from-layer="6043" from-port="0" to-layer="6044" to-port="1" />
		<edge from-layer="6044" from-port="2" to-layer="6045" to-port="0" />
		<edge from-layer="6045" from-port="1" to-layer="6046" to-port="1" />
		<edge from-layer="6046" from-port="2" to-layer="6047" to-port="0" />
		<edge from-layer="6047" from-port="1" to-layer="6059" to-port="0" />
		<edge from-layer="6048" from-port="0" to-layer="6049" to-port="0" />
		<edge from-layer="6049" from-port="1" to-layer="6052" to-port="0" />
		<edge from-layer="6050" from-port="0" to-layer="6051" to-port="0" />
		<edge from-layer="6051" from-port="1" to-layer="6052" to-port="1" />
		<edge from-layer="6052" from-port="2" to-layer="6054" to-port="0" />
		<edge from-layer="6053" from-port="0" to-layer="6054" to-port="1" />
		<edge from-layer="6054" from-port="2" to-layer="6056" to-port="0" />
		<edge from-layer="6055" from-port="0" to-layer="6056" to-port="1" />
		<edge from-layer="6056" from-port="2" to-layer="6057" to-port="0" />
		<edge from-layer="6057" from-port="1" to-layer="6058" to-port="1" />
		<edge from-layer="6058" from-port="2" to-layer="6059" to-port="1" />
		<edge from-layer="6059" from-port="2" to-layer="6070" to-port="0" />
		<edge from-layer="6060" from-port="0" to-layer="6061" to-port="0" />
		<edge from-layer="6061" from-port="1" to-layer="6064" to-port="0" />
		<edge from-layer="6062" from-port="0" to-layer="6063" to-port="0" />
		<edge from-layer="6063" from-port="1" to-layer="6064" to-port="1" />
		<edge from-layer="6064" from-port="2" to-layer="6066" to-port="0" />
		<edge from-layer="6065" from-port="0" to-layer="6066" to-port="1" />
		<edge from-layer="6066" from-port="2" to-layer="6068" to-port="0" />
		<edge from-layer="6067" from-port="0" to-layer="6068" to-port="1" />
		<edge from-layer="6068" from-port="2" to-layer="6069" to-port="0" />
		<edge from-layer="6069" from-port="1" to-layer="6070" to-port="1" />
		<edge from-layer="6070" from-port="2" to-layer="6071" to-port="1" />
		<edge from-layer="6071" from-port="2" to-layer="6074" to-port="0" />
		<edge from-layer="6071" from-port="2" to-layer="6081" to-port="0" />
		<edge from-layer="6072" from-port="0" to-layer="6080" to-port="0" />
		<edge from-layer="6073" from-port="0" to-layer="6074" to-port="1" />
		<edge from-layer="6074" from-port="2" to-layer="6076" to-port="0" />
		<edge from-layer="6075" from-port="0" to-layer="6076" to-port="1" />
		<edge from-layer="6076" from-port="2" to-layer="6078" to-port="0" />
		<edge from-layer="6077" from-port="0" to-layer="6078" to-port="1" />
		<edge from-layer="6078" from-port="2" to-layer="6079" to-port="0" />
		<edge from-layer="6079" from-port="1" to-layer="6080" to-port="1" />
		<edge from-layer="6080" from-port="2" to-layer="6081" to-port="1" />
		<edge from-layer="6081" from-port="2" to-layer="6082" to-port="1" />
		<edge from-layer="6082" from-port="2" to-layer="6091" to-port="0" />
		<edge from-layer="6083" from-port="0" to-layer="6084" to-port="0" />
		<edge from-layer="6084" from-port="1" to-layer="6087" to-port="0" />
		<edge from-layer="6085" from-port="0" to-layer="6086" to-port="0" />
		<edge from-layer="6086" from-port="1" to-layer="6087" to-port="1" />
		<edge from-layer="6087" from-port="2" to-layer="6089" to-port="0" />
		<edge from-layer="6088" from-port="0" to-layer="6089" to-port="1" />
		<edge from-layer="6089" from-port="2" to-layer="6090" to-port="0" />
		<edge from-layer="6090" from-port="1" to-layer="6091" to-port="1" />
		<edge from-layer="6091" from-port="2" to-layer="6092" to-port="0" />
	</edges>
	<rt_info>
		<Runtime_version value="2025.2.0-19140-c01cd93e24d-releases/2025/2" />
		<conversion_parameters>
			<framework value="pytorch" />
			<is_python_object value="True" />
		</conversion_parameters>
		<nncf>
			<friendly_names_were_updated value="True" />
			<version value="2.17.0" />
			<weight_compression>
				<advanced_parameters value="{'statistics_path': None, 'awq_params': {'subset_size': 32, 'percent_to_apply': 0.002, 'alpha_min': 0.0, 'alpha_max': 1.0, 'steps': 100, 'prefer_data_aware_scaling': True}, 'scale_estimation_params': {'subset_size': 64, 'initial_steps': 5, 'scale_steps': 5, 'weight_penalty': -1.0}, 'gptq_params': {'damp_percent': 0.1, 'block_size': 128, 'subset_size': 128}, 'lora_correction_params': {'adapter_rank': 8, 'num_iterations': 3, 'apply_regularization': True, 'subset_size': 128, 'use_int8_adapters': True}, 'lora_adapter_rank': 256, 'backend_params': {}}" />
				<all_layers value="False" />
				<awq value="False" />
				<backup_mode value="int8_asym" />
				<compression_format value="dequantize" />
				<gptq value="False" />
				<group_size value="128" />
				<ignored_scope value="[]" />
				<lora_correction value="False" />
				<mode value="int4_asym" />
				<ratio value="1.0" />
				<scale_estimation value="False" />
				<sensitivity_metric value="weight_quantization_error" />
			</weight_compression>
		</nncf>
		<optimum>
			<nncf_version value="2.17.0" />
			<optimum_intel_version value="1.24.0" />
			<optimum_version value="1.26.1" />
			<pytorch_version value="2.6.0+cu124" />
			<transformers_version value="4.52.4" />
		</optimum>
		<runtime_options>
			<ACTIVATIONS_SCALE_FACTOR value="8.0" />
		</runtime_options>
	</rt_info>
</net>
